{"format": "graph-model", "generatedBy": "2.3.1", "convertedBy": "TensorFlow.js Converter v2.7.0", "userDefinedMetadata": {"signature": {"inputs": {"padded_datas:0": {"name": "padded_datas:0", "dtype": "DT_FLOAT", "tensorShape": {"dim": [{"size": "-1"}, {"size": "-1"}, {"size": "129"}]}}}, "outputs": {"Identity:0": {"name": "Identity:0", "dtype": "DT_FLOAT", "tensorShape": {"dim": [{"size": "-1"}, {"size": "-1"}, {"size": "2036"}]}}}}}, "modelTopology": {"node": [{"name": "StatefulPartitionedCall/CTC_kerasModel4linerout/liner_out/Tensordot/Const", "op": "Const", "attr": {"value": {"tensor": {"dtype": "DT_INT32", "tensorShape": {"dim": [{"size": "1"}]}}}, "dtype": {"type": "DT_INT32"}}}, {"name": "StatefulPartitionedCall/CTC_kerasModel4linerout/liner_out/Tensordot/axes", "op": "Const", "attr": {"value": {"tensor": {"dtype": "DT_INT32", "tensorShape": {"dim": [{"size": "1"}]}}}, "dtype": {"type": "DT_INT32"}}}, {"name": "StatefulPartitionedCall/CTC_kerasModel4linerout/liner_out/Tensordot/GatherV2_1/axis", "op": "Const", "attr": {"value": {"tensor": {"dtype": "DT_INT32", "tensorShape": {}}}, "dtype": {"type": "DT_INT32"}}}, {"name": "StatefulPartitionedCall/CTC_kerasModel4linerout/liner_out/Tensordot/Const_1", "op": "Const", "attr": {"dtype": {"type": "DT_INT32"}, "value": {"tensor": {"dtype": "DT_INT32", "tensorShape": {"dim": [{"size": "1"}]}}}}}, {"name": "unknown_207", "op": "Const", "attr": {"value": {"tensor": {"dtype": "DT_FLOAT", "tensorShape": {"dim": [{"size": "1024"}, {"size": "2036"}]}}}, "dtype": {"type": "DT_FLOAT"}}}, {"name": "StatefulPartitionedCall/CTC_kerasModel4linerout/tf_op_layer_Mul_27/Mul_27/y", "op": "Const", "attr": {"dtype": {"type": "DT_FLOAT"}, "value": {"tensor": {"dtype": "DT_FLOAT", "tensorShape": {}}}}}, {"name": "StatefulPartitionedCall/CTC_kerasModel4linerout/tf_op_layer_AddV2_27/AddV2_27/y", "op": "Const", "attr": {"dtype": {"type": "DT_FLOAT"}, "value": {"tensor": {"dtype": "DT_FLOAT", "tensorShape": {}}}}}, {"name": "StatefulPartitionedCall/CTC_kerasModel4linerout/tf_op_layer_Mul_26/Mul_26/y", "op": "Const", "attr": {"dtype": {"type": "DT_FLOAT"}, "value": {"tensor": {"dtype": "DT_FLOAT", "tensorShape": {}}}}}, {"name": "StatefulPartitionedCall/CTC_kerasModel4linerout/tf_op_layer_AddV2_26/AddV2_26/y", "op": "Const", "attr": {"dtype": {"type": "DT_FLOAT"}, "value": {"tensor": {"dtype": "DT_FLOAT", "tensorShape": {}}}}}, {"name": "StatefulPartitionedCall/CTC_kerasModel4linerout/tf_op_layer_Mul_25/Mul_25/y", "op": "Const", "attr": {"value": {"tensor": {"dtype": "DT_FLOAT", "tensorShape": {}}}, "dtype": {"type": "DT_FLOAT"}}}, {"name": "StatefulPartitionedCall/CTC_kerasModel4linerout/expanded_conv_10/squeeze_excite/AvgPool/Mean/reduction_indices", "op": "Const", "attr": {"value": {"tensor": {"dtype": "DT_INT32", "tensorShape": {"dim": [{"size": "2"}]}}}, "dtype": {"type": "DT_INT32"}}}, {"name": "StatefulPartitionedCall/CTC_kerasModel4linerout/reshape_9/strided_slice/stack", "op": "Const", "attr": {"value": {"tensor": {"dtype": "DT_INT32", "tensorShape": {"dim": [{"size": "1"}]}}}, "dtype": {"type": "DT_INT32"}}}, {"name": "StatefulPartitionedCall/CTC_kerasModel4linerout/reshape_9/strided_slice/stack_1", "op": "Const", "attr": {"dtype": {"type": "DT_INT32"}, "value": {"tensor": {"dtype": "DT_INT32", "tensorShape": {"dim": [{"size": "1"}]}}}}}, {"name": "StatefulPartitionedCall/CTC_kerasModel4linerout/reshape_9/strided_slice/stack_2", "op": "Const", "attr": {"value": {"tensor": {"dtype": "DT_INT32", "tensorShape": {"dim": [{"size": "1"}]}}}, "dtype": {"type": "DT_INT32"}}}, {"name": "StatefulPartitionedCall/CTC_kerasModel4linerout/reshape_9/Reshape/shape/1", "op": "Const", "attr": {"value": {"tensor": {"dtype": "DT_INT32", "tensorShape": {}}}, "dtype": {"type": "DT_INT32"}}}, {"name": "StatefulPartitionedCall/CTC_kerasModel4linerout/reshape_9/Reshape/shape/2", "op": "Const", "attr": {"dtype": {"type": "DT_INT32"}, "value": {"tensor": {"dtype": "DT_INT32", "tensorShape": {}}}}}, {"name": "StatefulPartitionedCall/CTC_kerasModel4linerout/reshape_9/Reshape/shape/3", "op": "Const", "attr": {"value": {"tensor": {"dtype": "DT_INT32", "tensorShape": {}}}, "dtype": {"type": "DT_INT32"}}}, {"name": "unknown_191", "op": "Const", "attr": {"dtype": {"type": "DT_FLOAT"}, "value": {"tensor": {"dtype": "DT_FLOAT", "tensorShape": {"dim": [{"size": "1"}, {"size": "1"}, {"size": "576"}, {"size": "144"}]}}}}}, {"name": "unknown_192", "op": "Const", "attr": {"value": {"tensor": {"dtype": "DT_FLOAT", "tensorShape": {"dim": [{"size": "144"}]}}}, "dtype": {"type": "DT_FLOAT"}}}, {"name": "unknown_193", "op": "Const", "attr": {"dtype": {"type": "DT_FLOAT"}, "value": {"tensor": {"dtype": "DT_FLOAT", "tensorShape": {"dim": [{"size": "1"}, {"size": "1"}, {"size": "144"}, {"size": "576"}]}}}}}, {"name": "unknown_194", "op": "Const", "attr": {"dtype": {"type": "DT_FLOAT"}, "value": {"tensor": {"dtype": "DT_FLOAT", "tensorShape": {"dim": [{"size": "576"}]}}}}}, {"name": "StatefulPartitionedCall/CTC_kerasModel4linerout/tf_op_layer_AddV2_25/AddV2_25/y", "op": "Const", "attr": {"dtype": {"type": "DT_FLOAT"}, "value": {"tensor": {"dtype": "DT_FLOAT", "tensorShape": {}}}}}, {"name": "StatefulPartitionedCall/CTC_kerasModel4linerout/tf_op_layer_Mul_24/Mul_24/y", "op": "Const", "attr": {"dtype": {"type": "DT_FLOAT"}, "value": {"tensor": {"dtype": "DT_FLOAT", "tensorShape": {}}}}}, {"name": "StatefulPartitionedCall/CTC_kerasModel4linerout/tf_op_layer_AddV2_24/AddV2_24/y", "op": "Const", "attr": {"value": {"tensor": {"dtype": "DT_FLOAT", "tensorShape": {}}}, "dtype": {"type": "DT_FLOAT"}}}, {"name": "StatefulPartitionedCall/CTC_kerasModel4linerout/tf_op_layer_Mul_23/Mul_23/y", "op": "Const", "attr": {"value": {"tensor": {"dtype": "DT_FLOAT", "tensorShape": {}}}, "dtype": {"type": "DT_FLOAT"}}}, {"name": "StatefulPartitionedCall/CTC_kerasModel4linerout/tf_op_layer_AddV2_23/AddV2_23/y", "op": "Const", "attr": {"value": {"tensor": {"dtype": "DT_FLOAT", "tensorShape": {}}}, "dtype": {"type": "DT_FLOAT"}}}, {"name": "StatefulPartitionedCall/CTC_kerasModel4linerout/tf_op_layer_Mul_22/Mul_22/y", "op": "Const", "attr": {"value": {"tensor": {"dtype": "DT_FLOAT", "tensorShape": {}}}, "dtype": {"type": "DT_FLOAT"}}}, {"name": "StatefulPartitionedCall/CTC_kerasModel4linerout/expanded_conv_9/squeeze_excite/AvgPool/Mean/reduction_indices", "op": "Const", "attr": {"dtype": {"type": "DT_INT32"}, "value": {"tensor": {"dtype": "DT_INT32", "tensorShape": {"dim": [{"size": "2"}]}}}}}, {"name": "StatefulPartitionedCall/CTC_kerasModel4linerout/reshape_8/strided_slice/stack", "op": "Const", "attr": {"value": {"tensor": {"dtype": "DT_INT32", "tensorShape": {"dim": [{"size": "1"}]}}}, "dtype": {"type": "DT_INT32"}}}, {"name": "StatefulPartitionedCall/CTC_kerasModel4linerout/reshape_8/strided_slice/stack_1", "op": "Const", "attr": {"dtype": {"type": "DT_INT32"}, "value": {"tensor": {"dtype": "DT_INT32", "tensorShape": {"dim": [{"size": "1"}]}}}}}, {"name": "StatefulPartitionedCall/CTC_kerasModel4linerout/reshape_8/strided_slice/stack_2", "op": "Const", "attr": {"dtype": {"type": "DT_INT32"}, "value": {"tensor": {"dtype": "DT_INT32", "tensorShape": {"dim": [{"size": "1"}]}}}}}, {"name": "StatefulPartitionedCall/CTC_kerasModel4linerout/reshape_8/Reshape/shape/1", "op": "Const", "attr": {"value": {"tensor": {"dtype": "DT_INT32", "tensorShape": {}}}, "dtype": {"type": "DT_INT32"}}}, {"name": "StatefulPartitionedCall/CTC_kerasModel4linerout/reshape_8/Reshape/shape/2", "op": "Const", "attr": {"dtype": {"type": "DT_INT32"}, "value": {"tensor": {"dtype": "DT_INT32", "tensorShape": {}}}}}, {"name": "StatefulPartitionedCall/CTC_kerasModel4linerout/reshape_8/Reshape/shape/3", "op": "Const", "attr": {"value": {"tensor": {"dtype": "DT_INT32", "tensorShape": {}}}, "dtype": {"type": "DT_INT32"}}}, {"name": "unknown_172", "op": "Const", "attr": {"value": {"tensor": {"dtype": "DT_FLOAT", "tensorShape": {"dim": [{"size": "1"}, {"size": "1"}, {"size": "576"}, {"size": "144"}]}}}, "dtype": {"type": "DT_FLOAT"}}}, {"name": "unknown_173", "op": "Const", "attr": {"dtype": {"type": "DT_FLOAT"}, "value": {"tensor": {"dtype": "DT_FLOAT", "tensorShape": {"dim": [{"size": "144"}]}}}}}, {"name": "unknown_174", "op": "Const", "attr": {"dtype": {"type": "DT_FLOAT"}, "value": {"tensor": {"dtype": "DT_FLOAT", "tensorShape": {"dim": [{"size": "1"}, {"size": "1"}, {"size": "144"}, {"size": "576"}]}}}}}, {"name": "unknown_175", "op": "Const", "attr": {"value": {"tensor": {"dtype": "DT_FLOAT", "tensorShape": {"dim": [{"size": "576"}]}}}, "dtype": {"type": "DT_FLOAT"}}}, {"name": "StatefulPartitionedCall/CTC_kerasModel4linerout/tf_op_layer_AddV2_22/AddV2_22/y", "op": "Const", "attr": {"dtype": {"type": "DT_FLOAT"}, "value": {"tensor": {"dtype": "DT_FLOAT", "tensorShape": {}}}}}, {"name": "StatefulPartitionedCall/CTC_kerasModel4linerout/tf_op_layer_Mul_21/Mul_21/y", "op": "Const", "attr": {"dtype": {"type": "DT_FLOAT"}, "value": {"tensor": {"dtype": "DT_FLOAT", "tensorShape": {}}}}}, {"name": "StatefulPartitionedCall/CTC_kerasModel4linerout/tf_op_layer_AddV2_21/AddV2_21/y", "op": "Const", "attr": {"value": {"tensor": {"dtype": "DT_FLOAT", "tensorShape": {}}}, "dtype": {"type": "DT_FLOAT"}}}, {"name": "StatefulPartitionedCall/CTC_kerasModel4linerout/tf_op_layer_Mul_20/Mul_20/y", "op": "Const", "attr": {"value": {"tensor": {"dtype": "DT_FLOAT", "tensorShape": {}}}, "dtype": {"type": "DT_FLOAT"}}}, {"name": "StatefulPartitionedCall/CTC_kerasModel4linerout/tf_op_layer_AddV2_20/AddV2_20/y", "op": "Const", "attr": {"dtype": {"type": "DT_FLOAT"}, "value": {"tensor": {"dtype": "DT_FLOAT", "tensorShape": {}}}}}, {"name": "StatefulPartitionedCall/CTC_kerasModel4linerout/tf_op_layer_Mul_19/Mul_19/y", "op": "Const", "attr": {"value": {"tensor": {"dtype": "DT_FLOAT", "tensorShape": {}}}, "dtype": {"type": "DT_FLOAT"}}}, {"name": "StatefulPartitionedCall/CTC_kerasModel4linerout/expanded_conv_8/squeeze_excite/AvgPool/Mean/reduction_indices", "op": "Const", "attr": {"value": {"tensor": {"dtype": "DT_INT32", "tensorShape": {"dim": [{"size": "2"}]}}}, "dtype": {"type": "DT_INT32"}}}, {"name": "StatefulPartitionedCall/CTC_kerasModel4linerout/reshape_7/strided_slice/stack", "op": "Const", "attr": {"value": {"tensor": {"dtype": "DT_INT32", "tensorShape": {"dim": [{"size": "1"}]}}}, "dtype": {"type": "DT_INT32"}}}, {"name": "StatefulPartitionedCall/CTC_kerasModel4linerout/reshape_7/strided_slice/stack_1", "op": "Const", "attr": {"dtype": {"type": "DT_INT32"}, "value": {"tensor": {"dtype": "DT_INT32", "tensorShape": {"dim": [{"size": "1"}]}}}}}, {"name": "StatefulPartitionedCall/CTC_kerasModel4linerout/reshape_7/strided_slice/stack_2", "op": "Const", "attr": {"dtype": {"type": "DT_INT32"}, "value": {"tensor": {"dtype": "DT_INT32", "tensorShape": {"dim": [{"size": "1"}]}}}}}, {"name": "StatefulPartitionedCall/CTC_kerasModel4linerout/reshape_7/Reshape/shape/1", "op": "Const", "attr": {"dtype": {"type": "DT_INT32"}, "value": {"tensor": {"dtype": "DT_INT32", "tensorShape": {}}}}}, {"name": "StatefulPartitionedCall/CTC_kerasModel4linerout/reshape_7/Reshape/shape/2", "op": "Const", "attr": {"dtype": {"type": "DT_INT32"}, "value": {"tensor": {"dtype": "DT_INT32", "tensorShape": {}}}}}, {"name": "StatefulPartitionedCall/CTC_kerasModel4linerout/reshape_7/Reshape/shape/3", "op": "Const", "attr": {"dtype": {"type": "DT_INT32"}, "value": {"tensor": {"dtype": "DT_INT32", "tensorShape": {}}}}}, {"name": "unknown_153", "op": "Const", "attr": {"dtype": {"type": "DT_FLOAT"}, "value": {"tensor": {"dtype": "DT_FLOAT", "tensorShape": {"dim": [{"size": "1"}, {"size": "1"}, {"size": "288"}, {"size": "72"}]}}}}}, {"name": "unknown_154", "op": "Const", "attr": {"dtype": {"type": "DT_FLOAT"}, "value": {"tensor": {"dtype": "DT_FLOAT", "tensorShape": {"dim": [{"size": "72"}]}}}}}, {"name": "unknown_155", "op": "Const", "attr": {"value": {"tensor": {"dtype": "DT_FLOAT", "tensorShape": {"dim": [{"size": "1"}, {"size": "1"}, {"size": "72"}, {"size": "288"}]}}}, "dtype": {"type": "DT_FLOAT"}}}, {"name": "unknown_156", "op": "Const", "attr": {"value": {"tensor": {"dtype": "DT_FLOAT", "tensorShape": {"dim": [{"size": "288"}]}}}, "dtype": {"type": "DT_FLOAT"}}}, {"name": "StatefulPartitionedCall/CTC_kerasModel4linerout/tf_op_layer_AddV2_19/AddV2_19/y", "op": "Const", "attr": {"dtype": {"type": "DT_FLOAT"}, "value": {"tensor": {"dtype": "DT_FLOAT", "tensorShape": {}}}}}, {"name": "StatefulPartitionedCall/CTC_kerasModel4linerout/tf_op_layer_Mul_18/Mul_18/y", "op": "Const", "attr": {"value": {"tensor": {"dtype": "DT_FLOAT", "tensorShape": {}}}, "dtype": {"type": "DT_FLOAT"}}}, {"name": "StatefulPartitionedCall/CTC_kerasModel4linerout/tf_op_layer_AddV2_18/AddV2_18/y", "op": "Const", "attr": {"dtype": {"type": "DT_FLOAT"}, "value": {"tensor": {"dtype": "DT_FLOAT", "tensorShape": {}}}}}, {"name": "StatefulPartitionedCall/CTC_kerasModel4linerout/tf_op_layer_Mul_17/Mul_17/y", "op": "Const", "attr": {"value": {"tensor": {"dtype": "DT_FLOAT", "tensorShape": {}}}, "dtype": {"type": "DT_FLOAT"}}}, {"name": "StatefulPartitionedCall/CTC_kerasModel4linerout/tf_op_layer_AddV2_17/AddV2_17/y", "op": "Const", "attr": {"value": {"tensor": {"dtype": "DT_FLOAT", "tensorShape": {}}}, "dtype": {"type": "DT_FLOAT"}}}, {"name": "StatefulPartitionedCall/CTC_kerasModel4linerout/tf_op_layer_Mul_16/Mul_16/y", "op": "Const", "attr": {"value": {"tensor": {"dtype": "DT_FLOAT", "tensorShape": {}}}, "dtype": {"type": "DT_FLOAT"}}}, {"name": "StatefulPartitionedCall/CTC_kerasModel4linerout/expanded_conv_7/squeeze_excite/AvgPool/Mean/reduction_indices", "op": "Const", "attr": {"dtype": {"type": "DT_INT32"}, "value": {"tensor": {"dtype": "DT_INT32", "tensorShape": {"dim": [{"size": "2"}]}}}}}, {"name": "StatefulPartitionedCall/CTC_kerasModel4linerout/reshape_6/strided_slice/stack", "op": "Const", "attr": {"value": {"tensor": {"dtype": "DT_INT32", "tensorShape": {"dim": [{"size": "1"}]}}}, "dtype": {"type": "DT_INT32"}}}, {"name": "StatefulPartitionedCall/CTC_kerasModel4linerout/reshape_6/strided_slice/stack_1", "op": "Const", "attr": {"dtype": {"type": "DT_INT32"}, "value": {"tensor": {"dtype": "DT_INT32", "tensorShape": {"dim": [{"size": "1"}]}}}}}, {"name": "StatefulPartitionedCall/CTC_kerasModel4linerout/reshape_6/strided_slice/stack_2", "op": "Const", "attr": {"dtype": {"type": "DT_INT32"}, "value": {"tensor": {"dtype": "DT_INT32", "tensorShape": {"dim": [{"size": "1"}]}}}}}, {"name": "StatefulPartitionedCall/CTC_kerasModel4linerout/reshape_6/Reshape/shape/1", "op": "Const", "attr": {"value": {"tensor": {"dtype": "DT_INT32", "tensorShape": {}}}, "dtype": {"type": "DT_INT32"}}}, {"name": "StatefulPartitionedCall/CTC_kerasModel4linerout/reshape_6/Reshape/shape/2", "op": "Const", "attr": {"dtype": {"type": "DT_INT32"}, "value": {"tensor": {"dtype": "DT_INT32", "tensorShape": {}}}}}, {"name": "StatefulPartitionedCall/CTC_kerasModel4linerout/reshape_6/Reshape/shape/3", "op": "Const", "attr": {"value": {"tensor": {"dtype": "DT_INT32", "tensorShape": {}}}, "dtype": {"type": "DT_INT32"}}}, {"name": "unknown_134", "op": "Const", "attr": {"dtype": {"type": "DT_FLOAT"}, "value": {"tensor": {"dtype": "DT_FLOAT", "tensorShape": {"dim": [{"size": "1"}, {"size": "1"}, {"size": "144"}, {"size": "40"}]}}}}}, {"name": "unknown_135", "op": "Const", "attr": {"dtype": {"type": "DT_FLOAT"}, "value": {"tensor": {"dtype": "DT_FLOAT", "tensorShape": {"dim": [{"size": "40"}]}}}}}, {"name": "unknown_136", "op": "Const", "attr": {"dtype": {"type": "DT_FLOAT"}, "value": {"tensor": {"dtype": "DT_FLOAT", "tensorShape": {"dim": [{"size": "1"}, {"size": "1"}, {"size": "40"}, {"size": "144"}]}}}}}, {"name": "unknown_137", "op": "Const", "attr": {"value": {"tensor": {"dtype": "DT_FLOAT", "tensorShape": {"dim": [{"size": "144"}]}}}, "dtype": {"type": "DT_FLOAT"}}}, {"name": "StatefulPartitionedCall/CTC_kerasModel4linerout/tf_op_layer_AddV2_16/AddV2_16/y", "op": "Const", "attr": {"dtype": {"type": "DT_FLOAT"}, "value": {"tensor": {"dtype": "DT_FLOAT", "tensorShape": {}}}}}, {"name": "StatefulPartitionedCall/CTC_kerasModel4linerout/tf_op_layer_Mul_15/Mul_15/y", "op": "Const", "attr": {"value": {"tensor": {"dtype": "DT_FLOAT", "tensorShape": {}}}, "dtype": {"type": "DT_FLOAT"}}}, {"name": "StatefulPartitionedCall/CTC_kerasModel4linerout/tf_op_layer_AddV2_15/AddV2_15/y", "op": "Const", "attr": {"dtype": {"type": "DT_FLOAT"}, "value": {"tensor": {"dtype": "DT_FLOAT", "tensorShape": {}}}}}, {"name": "StatefulPartitionedCall/CTC_kerasModel4linerout/tf_op_layer_Mul_14/Mul_14/y", "op": "Const", "attr": {"value": {"tensor": {"dtype": "DT_FLOAT", "tensorShape": {}}}, "dtype": {"type": "DT_FLOAT"}}}, {"name": "StatefulPartitionedCall/CTC_kerasModel4linerout/tf_op_layer_AddV2_14/AddV2_14/y", "op": "Const", "attr": {"value": {"tensor": {"dtype": "DT_FLOAT", "tensorShape": {}}}, "dtype": {"type": "DT_FLOAT"}}}, {"name": "StatefulPartitionedCall/CTC_kerasModel4linerout/tf_op_layer_Mul_13/Mul_13/y", "op": "Const", "attr": {"value": {"tensor": {"dtype": "DT_FLOAT", "tensorShape": {}}}, "dtype": {"type": "DT_FLOAT"}}}, {"name": "StatefulPartitionedCall/CTC_kerasModel4linerout/expanded_conv_6/squeeze_excite/AvgPool/Mean/reduction_indices", "op": "Const", "attr": {"dtype": {"type": "DT_INT32"}, "value": {"tensor": {"dtype": "DT_INT32", "tensorShape": {"dim": [{"size": "2"}]}}}}}, {"name": "StatefulPartitionedCall/CTC_kerasModel4linerout/reshape_5/strided_slice/stack", "op": "Const", "attr": {"dtype": {"type": "DT_INT32"}, "value": {"tensor": {"dtype": "DT_INT32", "tensorShape": {"dim": [{"size": "1"}]}}}}}, {"name": "StatefulPartitionedCall/CTC_kerasModel4linerout/reshape_5/strided_slice/stack_1", "op": "Const", "attr": {"value": {"tensor": {"dtype": "DT_INT32", "tensorShape": {"dim": [{"size": "1"}]}}}, "dtype": {"type": "DT_INT32"}}}, {"name": "StatefulPartitionedCall/CTC_kerasModel4linerout/reshape_5/strided_slice/stack_2", "op": "Const", "attr": {"dtype": {"type": "DT_INT32"}, "value": {"tensor": {"dtype": "DT_INT32", "tensorShape": {"dim": [{"size": "1"}]}}}}}, {"name": "StatefulPartitionedCall/CTC_kerasModel4linerout/reshape_5/Reshape/shape/1", "op": "Const", "attr": {"value": {"tensor": {"dtype": "DT_INT32", "tensorShape": {}}}, "dtype": {"type": "DT_INT32"}}}, {"name": "StatefulPartitionedCall/CTC_kerasModel4linerout/reshape_5/Reshape/shape/2", "op": "Const", "attr": {"dtype": {"type": "DT_INT32"}, "value": {"tensor": {"dtype": "DT_INT32", "tensorShape": {}}}}}, {"name": "StatefulPartitionedCall/CTC_kerasModel4linerout/reshape_5/Reshape/shape/3", "op": "Const", "attr": {"value": {"tensor": {"dtype": "DT_INT32", "tensorShape": {}}}, "dtype": {"type": "DT_INT32"}}}, {"name": "unknown_115", "op": "Const", "attr": {"dtype": {"type": "DT_FLOAT"}, "value": {"tensor": {"dtype": "DT_FLOAT", "tensorShape": {"dim": [{"size": "1"}, {"size": "1"}, {"size": "120"}, {"size": "32"}]}}}}}, {"name": "unknown_116", "op": "Const", "attr": {"value": {"tensor": {"dtype": "DT_FLOAT", "tensorShape": {"dim": [{"size": "32"}]}}}, "dtype": {"type": "DT_FLOAT"}}}, {"name": "unknown_117", "op": "Const", "attr": {"dtype": {"type": "DT_FLOAT"}, "value": {"tensor": {"dtype": "DT_FLOAT", "tensorShape": {"dim": [{"size": "1"}, {"size": "1"}, {"size": "32"}, {"size": "120"}]}}}}}, {"name": "unknown_118", "op": "Const", "attr": {"dtype": {"type": "DT_FLOAT"}, "value": {"tensor": {"dtype": "DT_FLOAT", "tensorShape": {"dim": [{"size": "120"}]}}}}}, {"name": "StatefulPartitionedCall/CTC_kerasModel4linerout/tf_op_layer_AddV2_13/AddV2_13/y", "op": "Const", "attr": {"dtype": {"type": "DT_FLOAT"}, "value": {"tensor": {"dtype": "DT_FLOAT", "tensorShape": {}}}}}, {"name": "StatefulPartitionedCall/CTC_kerasModel4linerout/tf_op_layer_Mul_12/Mul_12/y", "op": "Const", "attr": {"value": {"tensor": {"dtype": "DT_FLOAT", "tensorShape": {}}}, "dtype": {"type": "DT_FLOAT"}}}, {"name": "StatefulPartitionedCall/CTC_kerasModel4linerout/tf_op_layer_AddV2_12/AddV2_12/y", "op": "Const", "attr": {"dtype": {"type": "DT_FLOAT"}, "value": {"tensor": {"dtype": "DT_FLOAT", "tensorShape": {}}}}}, {"name": "StatefulPartitionedCall/CTC_kerasModel4linerout/tf_op_layer_Mul_11/Mul_11/y", "op": "Const", "attr": {"value": {"tensor": {"dtype": "DT_FLOAT", "tensorShape": {}}}, "dtype": {"type": "DT_FLOAT"}}}, {"name": "StatefulPartitionedCall/CTC_kerasModel4linerout/tf_op_layer_AddV2_11/AddV2_11/y", "op": "Const", "attr": {"value": {"tensor": {"dtype": "DT_FLOAT", "tensorShape": {}}}, "dtype": {"type": "DT_FLOAT"}}}, {"name": "StatefulPartitionedCall/CTC_kerasModel4linerout/tf_op_layer_Mul_10/Mul_10/y", "op": "Const", "attr": {"dtype": {"type": "DT_FLOAT"}, "value": {"tensor": {"dtype": "DT_FLOAT", "tensorShape": {}}}}}, {"name": "StatefulPartitionedCall/CTC_kerasModel4linerout/expanded_conv_5/squeeze_excite/AvgPool/Mean/reduction_indices", "op": "Const", "attr": {"value": {"tensor": {"dtype": "DT_INT32", "tensorShape": {"dim": [{"size": "2"}]}}}, "dtype": {"type": "DT_INT32"}}}, {"name": "StatefulPartitionedCall/CTC_kerasModel4linerout/reshape_4/strided_slice/stack", "op": "Const", "attr": {"value": {"tensor": {"dtype": "DT_INT32", "tensorShape": {"dim": [{"size": "1"}]}}}, "dtype": {"type": "DT_INT32"}}}, {"name": "StatefulPartitionedCall/CTC_kerasModel4linerout/reshape_4/strided_slice/stack_1", "op": "Const", "attr": {"value": {"tensor": {"dtype": "DT_INT32", "tensorShape": {"dim": [{"size": "1"}]}}}, "dtype": {"type": "DT_INT32"}}}, {"name": "StatefulPartitionedCall/CTC_kerasModel4linerout/reshape_4/strided_slice/stack_2", "op": "Const", "attr": {"dtype": {"type": "DT_INT32"}, "value": {"tensor": {"dtype": "DT_INT32", "tensorShape": {"dim": [{"size": "1"}]}}}}}, {"name": "StatefulPartitionedCall/CTC_kerasModel4linerout/reshape_4/Reshape/shape/1", "op": "Const", "attr": {"dtype": {"type": "DT_INT32"}, "value": {"tensor": {"dtype": "DT_INT32", "tensorShape": {}}}}}, {"name": "StatefulPartitionedCall/CTC_kerasModel4linerout/reshape_4/Reshape/shape/2", "op": "Const", "attr": {"dtype": {"type": "DT_INT32"}, "value": {"tensor": {"dtype": "DT_INT32", "tensorShape": {}}}}}, {"name": "StatefulPartitionedCall/CTC_kerasModel4linerout/reshape_4/Reshape/shape/3", "op": "Const", "attr": {"value": {"tensor": {"dtype": "DT_INT32", "tensorShape": {}}}, "dtype": {"type": "DT_INT32"}}}, {"name": "unknown_96", "op": "Const", "attr": {"value": {"tensor": {"dtype": "DT_FLOAT", "tensorShape": {"dim": [{"size": "1"}, {"size": "1"}, {"size": "240"}, {"size": "64"}]}}}, "dtype": {"type": "DT_FLOAT"}}}, {"name": "unknown_97", "op": "Const", "attr": {"dtype": {"type": "DT_FLOAT"}, "value": {"tensor": {"dtype": "DT_FLOAT", "tensorShape": {"dim": [{"size": "64"}]}}}}}, {"name": "unknown_98", "op": "Const", "attr": {"dtype": {"type": "DT_FLOAT"}, "value": {"tensor": {"dtype": "DT_FLOAT", "tensorShape": {"dim": [{"size": "1"}, {"size": "1"}, {"size": "64"}, {"size": "240"}]}}}}}, {"name": "unknown_99", "op": "Const", "attr": {"dtype": {"type": "DT_FLOAT"}, "value": {"tensor": {"dtype": "DT_FLOAT", "tensorShape": {"dim": [{"size": "240"}]}}}}}, {"name": "StatefulPartitionedCall/CTC_kerasModel4linerout/tf_op_layer_AddV2_10/AddV2_10/y", "op": "Const", "attr": {"value": {"tensor": {"dtype": "DT_FLOAT", "tensorShape": {}}}, "dtype": {"type": "DT_FLOAT"}}}, {"name": "StatefulPartitionedCall/CTC_kerasModel4linerout/tf_op_layer_Mul_9/Mul_9/y", "op": "Const", "attr": {"value": {"tensor": {"dtype": "DT_FLOAT", "tensorShape": {}}}, "dtype": {"type": "DT_FLOAT"}}}, {"name": "StatefulPartitionedCall/CTC_kerasModel4linerout/tf_op_layer_AddV2_9/AddV2_9/y", "op": "Const", "attr": {"dtype": {"type": "DT_FLOAT"}, "value": {"tensor": {"dtype": "DT_FLOAT", "tensorShape": {}}}}}, {"name": "StatefulPartitionedCall/CTC_kerasModel4linerout/tf_op_layer_Mul_8/Mul_8/y", "op": "Const", "attr": {"value": {"tensor": {"dtype": "DT_FLOAT", "tensorShape": {}}}, "dtype": {"type": "DT_FLOAT"}}}, {"name": "StatefulPartitionedCall/CTC_kerasModel4linerout/tf_op_layer_AddV2_8/AddV2_8/y", "op": "Const", "attr": {"dtype": {"type": "DT_FLOAT"}, "value": {"tensor": {"dtype": "DT_FLOAT", "tensorShape": {}}}}}, {"name": "StatefulPartitionedCall/CTC_kerasModel4linerout/tf_op_layer_Mul_7/Mul_7/y", "op": "Const", "attr": {"value": {"tensor": {"dtype": "DT_FLOAT", "tensorShape": {}}}, "dtype": {"type": "DT_FLOAT"}}}, {"name": "StatefulPartitionedCall/CTC_kerasModel4linerout/expanded_conv_4/squeeze_excite/AvgPool/Mean/reduction_indices", "op": "Const", "attr": {"dtype": {"type": "DT_INT32"}, "value": {"tensor": {"dtype": "DT_INT32", "tensorShape": {"dim": [{"size": "2"}]}}}}}, {"name": "StatefulPartitionedCall/CTC_kerasModel4linerout/reshape_3/strided_slice/stack", "op": "Const", "attr": {"dtype": {"type": "DT_INT32"}, "value": {"tensor": {"dtype": "DT_INT32", "tensorShape": {"dim": [{"size": "1"}]}}}}}, {"name": "StatefulPartitionedCall/CTC_kerasModel4linerout/reshape_3/strided_slice/stack_1", "op": "Const", "attr": {"value": {"tensor": {"dtype": "DT_INT32", "tensorShape": {"dim": [{"size": "1"}]}}}, "dtype": {"type": "DT_INT32"}}}, {"name": "StatefulPartitionedCall/CTC_kerasModel4linerout/reshape_3/strided_slice/stack_2", "op": "Const", "attr": {"value": {"tensor": {"dtype": "DT_INT32", "tensorShape": {"dim": [{"size": "1"}]}}}, "dtype": {"type": "DT_INT32"}}}, {"name": "StatefulPartitionedCall/CTC_kerasModel4linerout/reshape_3/Reshape/shape/1", "op": "Const", "attr": {"dtype": {"type": "DT_INT32"}, "value": {"tensor": {"dtype": "DT_INT32", "tensorShape": {}}}}}, {"name": "StatefulPartitionedCall/CTC_kerasModel4linerout/reshape_3/Reshape/shape/2", "op": "Const", "attr": {"dtype": {"type": "DT_INT32"}, "value": {"tensor": {"dtype": "DT_INT32", "tensorShape": {}}}}}, {"name": "StatefulPartitionedCall/CTC_kerasModel4linerout/reshape_3/Reshape/shape/3", "op": "Const", "attr": {"value": {"tensor": {"dtype": "DT_INT32", "tensorShape": {}}}, "dtype": {"type": "DT_INT32"}}}, {"name": "unknown_77", "op": "Const", "attr": {"value": {"tensor": {"dtype": "DT_FLOAT", "tensorShape": {"dim": [{"size": "1"}, {"size": "1"}, {"size": "240"}, {"size": "64"}]}}}, "dtype": {"type": "DT_FLOAT"}}}, {"name": "unknown_78", "op": "Const", "attr": {"value": {"tensor": {"dtype": "DT_FLOAT", "tensorShape": {"dim": [{"size": "64"}]}}}, "dtype": {"type": "DT_FLOAT"}}}, {"name": "unknown_79", "op": "Const", "attr": {"dtype": {"type": "DT_FLOAT"}, "value": {"tensor": {"dtype": "DT_FLOAT", "tensorShape": {"dim": [{"size": "1"}, {"size": "1"}, {"size": "64"}, {"size": "240"}]}}}}}, {"name": "unknown_80", "op": "Const", "attr": {"value": {"tensor": {"dtype": "DT_FLOAT", "tensorShape": {"dim": [{"size": "240"}]}}}, "dtype": {"type": "DT_FLOAT"}}}, {"name": "StatefulPartitionedCall/CTC_kerasModel4linerout/tf_op_layer_AddV2_7/AddV2_7/y", "op": "Const", "attr": {"value": {"tensor": {"dtype": "DT_FLOAT", "tensorShape": {}}}, "dtype": {"type": "DT_FLOAT"}}}, {"name": "StatefulPartitionedCall/CTC_kerasModel4linerout/tf_op_layer_Mul_6/Mul_6/y", "op": "Const", "attr": {"value": {"tensor": {"dtype": "DT_FLOAT", "tensorShape": {}}}, "dtype": {"type": "DT_FLOAT"}}}, {"name": "StatefulPartitionedCall/CTC_kerasModel4linerout/tf_op_layer_AddV2_6/AddV2_6/y", "op": "Const", "attr": {"dtype": {"type": "DT_FLOAT"}, "value": {"tensor": {"dtype": "DT_FLOAT", "tensorShape": {}}}}}, {"name": "StatefulPartitionedCall/CTC_kerasModel4linerout/tf_op_layer_Mul_5/Mul_5/y", "op": "Const", "attr": {"value": {"tensor": {"dtype": "DT_FLOAT", "tensorShape": {}}}, "dtype": {"type": "DT_FLOAT"}}}, {"name": "StatefulPartitionedCall/CTC_kerasModel4linerout/tf_op_layer_AddV2_5/AddV2_5/y", "op": "Const", "attr": {"dtype": {"type": "DT_FLOAT"}, "value": {"tensor": {"dtype": "DT_FLOAT", "tensorShape": {}}}}}, {"name": "StatefulPartitionedCall/CTC_kerasModel4linerout/tf_op_layer_Mul_4/Mul_4/y", "op": "Const", "attr": {"dtype": {"type": "DT_FLOAT"}, "value": {"tensor": {"dtype": "DT_FLOAT", "tensorShape": {}}}}}, {"name": "StatefulPartitionedCall/CTC_kerasModel4linerout/expanded_conv_3/squeeze_excite/AvgPool/Mean/reduction_indices", "op": "Const", "attr": {"dtype": {"type": "DT_INT32"}, "value": {"tensor": {"dtype": "DT_INT32", "tensorShape": {"dim": [{"size": "2"}]}}}}}, {"name": "StatefulPartitionedCall/CTC_kerasModel4linerout/reshape_2/strided_slice/stack", "op": "Const", "attr": {"dtype": {"type": "DT_INT32"}, "value": {"tensor": {"dtype": "DT_INT32", "tensorShape": {"dim": [{"size": "1"}]}}}}}, {"name": "StatefulPartitionedCall/CTC_kerasModel4linerout/reshape_2/strided_slice/stack_1", "op": "Const", "attr": {"dtype": {"type": "DT_INT32"}, "value": {"tensor": {"dtype": "DT_INT32", "tensorShape": {"dim": [{"size": "1"}]}}}}}, {"name": "StatefulPartitionedCall/CTC_kerasModel4linerout/reshape_2/strided_slice/stack_2", "op": "Const", "attr": {"value": {"tensor": {"dtype": "DT_INT32", "tensorShape": {"dim": [{"size": "1"}]}}}, "dtype": {"type": "DT_INT32"}}}, {"name": "StatefulPartitionedCall/CTC_kerasModel4linerout/reshape_2/Reshape/shape/1", "op": "Const", "attr": {"dtype": {"type": "DT_INT32"}, "value": {"tensor": {"dtype": "DT_INT32", "tensorShape": {}}}}}, {"name": "StatefulPartitionedCall/CTC_kerasModel4linerout/reshape_2/Reshape/shape/2", "op": "Const", "attr": {"value": {"tensor": {"dtype": "DT_INT32", "tensorShape": {}}}, "dtype": {"type": "DT_INT32"}}}, {"name": "StatefulPartitionedCall/CTC_kerasModel4linerout/reshape_2/Reshape/shape/3", "op": "Const", "attr": {"dtype": {"type": "DT_INT32"}, "value": {"tensor": {"dtype": "DT_INT32", "tensorShape": {}}}}}, {"name": "unknown_58", "op": "Const", "attr": {"dtype": {"type": "DT_FLOAT"}, "value": {"tensor": {"dtype": "DT_FLOAT", "tensorShape": {"dim": [{"size": "1"}, {"size": "1"}, {"size": "96"}, {"size": "24"}]}}}}}, {"name": "unknown_59", "op": "Const", "attr": {"dtype": {"type": "DT_FLOAT"}, "value": {"tensor": {"dtype": "DT_FLOAT", "tensorShape": {"dim": [{"size": "24"}]}}}}}, {"name": "unknown_60", "op": "Const", "attr": {"value": {"tensor": {"dtype": "DT_FLOAT", "tensorShape": {"dim": [{"size": "1"}, {"size": "1"}, {"size": "24"}, {"size": "96"}]}}}, "dtype": {"type": "DT_FLOAT"}}}, {"name": "unknown_61", "op": "Const", "attr": {"dtype": {"type": "DT_FLOAT"}, "value": {"tensor": {"dtype": "DT_FLOAT", "tensorShape": {"dim": [{"size": "96"}]}}}}}, {"name": "StatefulPartitionedCall/CTC_kerasModel4linerout/tf_op_layer_AddV2_4/AddV2_4/y", "op": "Const", "attr": {"dtype": {"type": "DT_FLOAT"}, "value": {"tensor": {"dtype": "DT_FLOAT", "tensorShape": {}}}}}, {"name": "StatefulPartitionedCall/CTC_kerasModel4linerout/tf_op_layer_Mul_3/Mul_3/y", "op": "Const", "attr": {"value": {"tensor": {"dtype": "DT_FLOAT", "tensorShape": {}}}, "dtype": {"type": "DT_FLOAT"}}}, {"name": "StatefulPartitionedCall/CTC_kerasModel4linerout/tf_op_layer_AddV2_3/AddV2_3/y", "op": "Const", "attr": {"value": {"tensor": {"dtype": "DT_FLOAT", "tensorShape": {}}}, "dtype": {"type": "DT_FLOAT"}}}, {"name": "StatefulPartitionedCall/CTC_kerasModel4linerout/tf_op_layer_Mul_2/Mul_2/y", "op": "Const", "attr": {"dtype": {"type": "DT_FLOAT"}, "value": {"tensor": {"dtype": "DT_FLOAT", "tensorShape": {}}}}}, {"name": "StatefulPartitionedCall/CTC_kerasModel4linerout/tf_op_layer_AddV2_2/AddV2_2/y", "op": "Const", "attr": {"dtype": {"type": "DT_FLOAT"}, "value": {"tensor": {"dtype": "DT_FLOAT", "tensorShape": {}}}}}, {"name": "StatefulPartitionedCall/CTC_kerasModel4linerout/tf_op_layer_Mul_1/Mul_1/y", "op": "Const", "attr": {"dtype": {"type": "DT_FLOAT"}, "value": {"tensor": {"dtype": "DT_FLOAT", "tensorShape": {}}}}}, {"name": "StatefulPartitionedCall/CTC_kerasModel4linerout/expanded_conv/squeeze_excite/AvgPool/Mean/reduction_indices", "op": "Const", "attr": {"dtype": {"type": "DT_INT32"}, "value": {"tensor": {"dtype": "DT_INT32", "tensorShape": {"dim": [{"size": "2"}]}}}}}, {"name": "StatefulPartitionedCall/CTC_kerasModel4linerout/reshape_1/strided_slice/stack", "op": "Const", "attr": {"dtype": {"type": "DT_INT32"}, "value": {"tensor": {"dtype": "DT_INT32", "tensorShape": {"dim": [{"size": "1"}]}}}}}, {"name": "StatefulPartitionedCall/CTC_kerasModel4linerout/reshape_1/strided_slice/stack_1", "op": "Const", "attr": {"dtype": {"type": "DT_INT32"}, "value": {"tensor": {"dtype": "DT_INT32", "tensorShape": {"dim": [{"size": "1"}]}}}}}, {"name": "StatefulPartitionedCall/CTC_kerasModel4linerout/reshape_1/strided_slice/stack_2", "op": "Const", "attr": {"dtype": {"type": "DT_INT32"}, "value": {"tensor": {"dtype": "DT_INT32", "tensorShape": {"dim": [{"size": "1"}]}}}}}, {"name": "StatefulPartitionedCall/CTC_kerasModel4linerout/reshape_1/Reshape/shape/1", "op": "Const", "attr": {"value": {"tensor": {"dtype": "DT_INT32", "tensorShape": {}}}, "dtype": {"type": "DT_INT32"}}}, {"name": "StatefulPartitionedCall/CTC_kerasModel4linerout/reshape_1/Reshape/shape/2", "op": "Const", "attr": {"value": {"tensor": {"dtype": "DT_INT32", "tensorShape": {}}}, "dtype": {"type": "DT_INT32"}}}, {"name": "StatefulPartitionedCall/CTC_kerasModel4linerout/reshape_1/Reshape/shape/3", "op": "Const", "attr": {"dtype": {"type": "DT_INT32"}, "value": {"tensor": {"dtype": "DT_INT32", "tensorShape": {}}}}}, {"name": "unknown_9", "op": "Const", "attr": {"value": {"tensor": {"dtype": "DT_FLOAT", "tensorShape": {"dim": [{"size": "1"}, {"size": "1"}, {"size": "16"}, {"size": "8"}]}}}, "dtype": {"type": "DT_FLOAT"}}}, {"name": "unknown_10", "op": "Const", "attr": {"value": {"tensor": {"dtype": "DT_FLOAT", "tensorShape": {"dim": [{"size": "8"}]}}}, "dtype": {"type": "DT_FLOAT"}}}, {"name": "unknown_11", "op": "Const", "attr": {"value": {"tensor": {"dtype": "DT_FLOAT", "tensorShape": {"dim": [{"size": "1"}, {"size": "1"}, {"size": "8"}, {"size": "16"}]}}}, "dtype": {"type": "DT_FLOAT"}}}, {"name": "unknown_12", "op": "Const", "attr": {"value": {"tensor": {"dtype": "DT_FLOAT", "tensorShape": {"dim": [{"size": "16"}]}}}, "dtype": {"type": "DT_FLOAT"}}}, {"name": "StatefulPartitionedCall/CTC_kerasModel4linerout/tf_op_layer_AddV2_1/AddV2_1/y", "op": "Const", "attr": {"value": {"tensor": {"dtype": "DT_FLOAT", "tensorShape": {}}}, "dtype": {"type": "DT_FLOAT"}}}, {"name": "StatefulPartitionedCall/CTC_kerasModel4linerout/tf_op_layer_Mul/Mul/y", "op": "Const", "attr": {"value": {"tensor": {"dtype": "DT_FLOAT", "tensorShape": {}}}, "dtype": {"type": "DT_FLOAT"}}}, {"name": "StatefulPartitionedCall/CTC_kerasModel4linerout/tf_op_layer_AddV2/AddV2/y", "op": "Const", "attr": {"dtype": {"type": "DT_FLOAT"}, "value": {"tensor": {"dtype": "DT_FLOAT", "tensorShape": {}}}}}, {"name": "StatefulPartitionedCall/CTC_kerasModel4linerout/reshape/strided_slice/stack", "op": "Const", "attr": {"value": {"tensor": {"dtype": "DT_INT32", "tensorShape": {"dim": [{"size": "1"}]}}}, "dtype": {"type": "DT_INT32"}}}, {"name": "StatefulPartitionedCall/CTC_kerasModel4linerout/reshape/strided_slice/stack_1", "op": "Const", "attr": {"value": {"tensor": {"dtype": "DT_INT32", "tensorShape": {"dim": [{"size": "1"}]}}}, "dtype": {"type": "DT_INT32"}}}, {"name": "StatefulPartitionedCall/CTC_kerasModel4linerout/reshape/strided_slice/stack_2", "op": "Const", "attr": {"value": {"tensor": {"dtype": "DT_INT32", "tensorShape": {"dim": [{"size": "1"}]}}}, "dtype": {"type": "DT_INT32"}}}, {"name": "StatefulPartitionedCall/CTC_kerasModel4linerout/reshape/Reshape/shape/1", "op": "Const", "attr": {"value": {"tensor": {"dtype": "DT_INT32", "tensorShape": {}}}, "dtype": {"type": "DT_INT32"}}}, {"name": "StatefulPartitionedCall/CTC_kerasModel4linerout/reshape/Reshape/shape/2", "op": "Const", "attr": {"dtype": {"type": "DT_INT32"}, "value": {"tensor": {"dtype": "DT_INT32", "tensorShape": {}}}}}, {"name": "StatefulPartitionedCall/CTC_kerasModel4linerout/reshape/Reshape/shape/3", "op": "Const", "attr": {"value": {"tensor": {"dtype": "DT_INT32", "tensorShape": {}}}, "dtype": {"type": "DT_INT32"}}}, {"name": "StatefulPartitionedCall/CTC_kerasModel4linerout/expanded_conv/depthwise/pad/Pad/paddings", "op": "Const", "attr": {"dtype": {"type": "DT_INT32"}, "value": {"tensor": {"dtype": "DT_INT32", "tensorShape": {"dim": [{"size": "4"}, {"size": "2"}]}}}}}, {"name": "StatefulPartitionedCall/CTC_kerasModel4linerout/expanded_conv_1/depthwise/pad/Pad/paddings", "op": "Const", "attr": {"dtype": {"type": "DT_INT32"}, "value": {"tensor": {"dtype": "DT_INT32", "tensorShape": {"dim": [{"size": "4"}, {"size": "2"}]}}}}}, {"name": "StatefulPartitionedCall/CTC_kerasModel4linerout/expanded_conv_3/depthwise/pad/Pad/paddings", "op": "Const", "attr": {"dtype": {"type": "DT_INT32"}, "value": {"tensor": {"dtype": "DT_INT32", "tensorShape": {"dim": [{"size": "4"}, {"size": "2"}]}}}}}, {"name": "StatefulPartitionedCall/CTC_kerasModel4linerout/expanded_conv_8/depthwise/pad/Pad/paddings", "op": "Const", "attr": {"value": {"tensor": {"dtype": "DT_INT32", "tensorShape": {"dim": [{"size": "4"}, {"size": "2"}]}}}, "dtype": {"type": "DT_INT32"}}}, {"name": "unknown_205", "op": "Const", "attr": {"dtype": {"type": "DT_FLOAT"}, "value": {"tensor": {"dtype": "DT_FLOAT", "tensorShape": {"dim": [{"size": "1"}, {"size": "1"}, {"size": "576"}, {"size": "1024"}]}}}}}, {"name": "unknown_206", "op": "Const", "attr": {"value": {"tensor": {"dtype": "DT_FLOAT", "tensorShape": {"dim": [{"size": "1024"}]}}}, "dtype": {"type": "DT_FLOAT"}}}, {"name": "StatefulPartitionedCall/CTC_kerasModel4linerout/reshape_10/strided_slice/stack", "op": "Const", "attr": {"value": {"tensor": {"dtype": "DT_INT32", "tensorShape": {"dim": [{"size": "1"}]}}}, "dtype": {"type": "DT_INT32"}}}, {"name": "StatefulPartitionedCall/CTC_kerasModel4linerout/reshape_10/strided_slice/stack_1", "op": "Const", "attr": {"value": {"tensor": {"dtype": "DT_INT32", "tensorShape": {"dim": [{"size": "1"}]}}}, "dtype": {"type": "DT_INT32"}}}, {"name": "StatefulPartitionedCall/CTC_kerasModel4linerout/reshape_10/strided_slice/stack_2", "op": "Const", "attr": {"dtype": {"type": "DT_INT32"}, "value": {"tensor": {"dtype": "DT_INT32", "tensorShape": {"dim": [{"size": "1"}]}}}}}, {"name": "StatefulPartitionedCall/CTC_kerasModel4linerout/reshape_10/Reshape/shape/1", "op": "Const", "attr": {"dtype": {"type": "DT_INT32"}, "value": {"tensor": {"dtype": "DT_INT32", "tensorShape": {}}}}}, {"name": "StatefulPartitionedCall/CTC_kerasModel4linerout/reshape_10/Reshape/shape/2", "op": "Const", "attr": {"dtype": {"type": "DT_INT32"}, "value": {"tensor": {"dtype": "DT_INT32", "tensorShape": {}}}}}, {"name": "StatefulPartitionedCall/CTC_kerasModel4linerout/liner_out/Tensordot/free", "op": "Const", "attr": {"value": {"tensor": {"dtype": "DT_INT32", "tensorShape": {"dim": [{"size": "2"}]}}}, "dtype": {"type": "DT_INT32"}}}, {"name": "StatefulPartitionedCall/CTC_kerasModel4linerout/liner_out/Tensordot/GatherV2/axis", "op": "Const", "attr": {"value": {"tensor": {"dtype": "DT_INT32", "tensorShape": {}}}, "dtype": {"type": "DT_INT32"}}}, {"name": "StatefulPartitionedCall/CTC_kerasModel4linerout/liner_out/Tensordot/Const_2", "op": "Const", "attr": {"value": {"tensor": {"dtype": "DT_INT32", "tensorShape": {"dim": [{"size": "1"}]}}}, "dtype": {"type": "DT_INT32"}}}, {"name": "StatefulPartitionedCall/CTC_kerasModel4linerout/liner_out/Tensordot/concat_1/axis", "op": "Const", "attr": {"value": {"tensor": {"dtype": "DT_INT32", "tensorShape": {}}}, "dtype": {"type": "DT_INT32"}}}, {"name": "unknown_208", "op": "Const", "attr": {"dtype": {"type": "DT_FLOAT"}, "value": {"tensor": {"dtype": "DT_FLOAT", "tensorShape": {"dim": [{"size": "2036"}]}}}}}, {"name": "padded_datas", "op": "Placeholder", "attr": {"dtype": {"type": "DT_FLOAT"}, "shape": {"shape": {"dim": [{"size": "-1"}, {"size": "-1"}, {"size": "129"}]}}}}, {"name": "StatefulPartitionedCall/CTC_kerasModel4linerout/Conv/Conv2D_weights", "op": "Const", "attr": {"dtype": {"type": "DT_FLOAT"}, "value": {"tensor": {"dtype": "DT_FLOAT", "tensorShape": {"dim": [{"size": "3"}, {"size": "3"}, {"size": "1"}, {"size": "16"}]}}}}}, {"name": "StatefulPartitionedCall/CTC_kerasModel4linerout/Conv/Conv2D_bn_offset", "op": "Const", "attr": {"value": {"tensor": {"dtype": "DT_FLOAT", "tensorShape": {"dim": [{"size": "16"}]}}}, "dtype": {"type": "DT_FLOAT"}}}, {"name": "StatefulPartitionedCall/CTC_kerasModel4linerout/expanded_conv/depthwise/depthwise_weights", "op": "Const", "attr": {"value": {"tensor": {"dtype": "DT_FLOAT", "tensorShape": {"dim": [{"size": "3"}, {"size": "3"}, {"size": "16"}, {"size": "1"}]}}}, "dtype": {"type": "DT_FLOAT"}}}, {"name": "StatefulPartitionedCall/CTC_kerasModel4linerout/expanded_conv/depthwise/depthwise_bn_offset", "op": "Const", "attr": {"dtype": {"type": "DT_FLOAT"}, "value": {"tensor": {"dtype": "DT_FLOAT", "tensorShape": {"dim": [{"size": "16"}]}}}}}, {"name": "StatefulPartitionedCall/CTC_kerasModel4linerout/expanded_conv/project/Conv2D_weights", "op": "Const", "attr": {"value": {"tensor": {"dtype": "DT_FLOAT", "tensorShape": {"dim": [{"size": "1"}, {"size": "1"}, {"size": "16"}, {"size": "16"}]}}}, "dtype": {"type": "DT_FLOAT"}}}, {"name": "StatefulPartitionedCall/CTC_kerasModel4linerout/expanded_conv/project/Conv2D_bn_offset", "op": "Const", "attr": {"value": {"tensor": {"dtype": "DT_FLOAT", "tensorShape": {"dim": [{"size": "16"}]}}}, "dtype": {"type": "DT_FLOAT"}}}, {"name": "StatefulPartitionedCall/CTC_kerasModel4linerout/expanded_conv_1/expand/Conv2D_weights", "op": "Const", "attr": {"value": {"tensor": {"dtype": "DT_FLOAT", "tensorShape": {"dim": [{"size": "1"}, {"size": "1"}, {"size": "16"}, {"size": "72"}]}}}, "dtype": {"type": "DT_FLOAT"}}}, {"name": "StatefulPartitionedCall/CTC_kerasModel4linerout/expanded_conv_1/expand/Conv2D_bn_offset", "op": "Const", "attr": {"value": {"tensor": {"dtype": "DT_FLOAT", "tensorShape": {"dim": [{"size": "72"}]}}}, "dtype": {"type": "DT_FLOAT"}}}, {"name": "StatefulPartitionedCall/CTC_kerasModel4linerout/expanded_conv_1/depthwise/depthwise_weights", "op": "Const", "attr": {"value": {"tensor": {"dtype": "DT_FLOAT", "tensorShape": {"dim": [{"size": "3"}, {"size": "3"}, {"size": "72"}, {"size": "1"}]}}}, "dtype": {"type": "DT_FLOAT"}}}, {"name": "StatefulPartitionedCall/CTC_kerasModel4linerout/expanded_conv_1/depthwise/depthwise_bn_offset", "op": "Const", "attr": {"dtype": {"type": "DT_FLOAT"}, "value": {"tensor": {"dtype": "DT_FLOAT", "tensorShape": {"dim": [{"size": "72"}]}}}}}, {"name": "StatefulPartitionedCall/CTC_kerasModel4linerout/expanded_conv_1/project/Conv2D_weights", "op": "Const", "attr": {"value": {"tensor": {"dtype": "DT_FLOAT", "tensorShape": {"dim": [{"size": "1"}, {"size": "1"}, {"size": "72"}, {"size": "24"}]}}}, "dtype": {"type": "DT_FLOAT"}}}, {"name": "StatefulPartitionedCall/CTC_kerasModel4linerout/expanded_conv_1/project/Conv2D_bn_offset", "op": "Const", "attr": {"value": {"tensor": {"dtype": "DT_FLOAT", "tensorShape": {"dim": [{"size": "24"}]}}}, "dtype": {"type": "DT_FLOAT"}}}, {"name": "StatefulPartitionedCall/CTC_kerasModel4linerout/expanded_conv_2/expand/Conv2D_weights", "op": "Const", "attr": {"dtype": {"type": "DT_FLOAT"}, "value": {"tensor": {"dtype": "DT_FLOAT", "tensorShape": {"dim": [{"size": "1"}, {"size": "1"}, {"size": "24"}, {"size": "88"}]}}}}}, {"name": "StatefulPartitionedCall/CTC_kerasModel4linerout/expanded_conv_2/expand/Conv2D_bn_offset", "op": "Const", "attr": {"dtype": {"type": "DT_FLOAT"}, "value": {"tensor": {"dtype": "DT_FLOAT", "tensorShape": {"dim": [{"size": "88"}]}}}}}, {"name": "StatefulPartitionedCall/CTC_kerasModel4linerout/expanded_conv_2/depthwise/depthwise_weights", "op": "Const", "attr": {"dtype": {"type": "DT_FLOAT"}, "value": {"tensor": {"dtype": "DT_FLOAT", "tensorShape": {"dim": [{"size": "3"}, {"size": "3"}, {"size": "88"}, {"size": "1"}]}}}}}, {"name": "StatefulPartitionedCall/CTC_kerasModel4linerout/expanded_conv_2/depthwise/depthwise_bn_offset", "op": "Const", "attr": {"value": {"tensor": {"dtype": "DT_FLOAT", "tensorShape": {"dim": [{"size": "88"}]}}}, "dtype": {"type": "DT_FLOAT"}}}, {"name": "StatefulPartitionedCall/CTC_kerasModel4linerout/expanded_conv_2/project/Conv2D_weights", "op": "Const", "attr": {"value": {"tensor": {"dtype": "DT_FLOAT", "tensorShape": {"dim": [{"size": "1"}, {"size": "1"}, {"size": "88"}, {"size": "24"}]}}}, "dtype": {"type": "DT_FLOAT"}}}, {"name": "StatefulPartitionedCall/CTC_kerasModel4linerout/expanded_conv_2/project/Conv2D_bn_offset", "op": "Const", "attr": {"value": {"tensor": {"dtype": "DT_FLOAT", "tensorShape": {"dim": [{"size": "24"}]}}}, "dtype": {"type": "DT_FLOAT"}}}, {"name": "StatefulPartitionedCall/CTC_kerasModel4linerout/expanded_conv_3/expand/Conv2D_weights", "op": "Const", "attr": {"dtype": {"type": "DT_FLOAT"}, "value": {"tensor": {"dtype": "DT_FLOAT", "tensorShape": {"dim": [{"size": "1"}, {"size": "1"}, {"size": "24"}, {"size": "96"}]}}}}}, {"name": "StatefulPartitionedCall/CTC_kerasModel4linerout/expanded_conv_3/expand/Conv2D_bn_offset", "op": "Const", "attr": {"value": {"tensor": {"dtype": "DT_FLOAT", "tensorShape": {"dim": [{"size": "96"}]}}}, "dtype": {"type": "DT_FLOAT"}}}, {"name": "StatefulPartitionedCall/CTC_kerasModel4linerout/expanded_conv_3/depthwise/depthwise_weights", "op": "Const", "attr": {"value": {"tensor": {"dtype": "DT_FLOAT", "tensorShape": {"dim": [{"size": "5"}, {"size": "5"}, {"size": "96"}, {"size": "1"}]}}}, "dtype": {"type": "DT_FLOAT"}}}, {"name": "StatefulPartitionedCall/CTC_kerasModel4linerout/expanded_conv_3/depthwise/depthwise_bn_offset", "op": "Const", "attr": {"value": {"tensor": {"dtype": "DT_FLOAT", "tensorShape": {"dim": [{"size": "96"}]}}}, "dtype": {"type": "DT_FLOAT"}}}, {"name": "StatefulPartitionedCall/CTC_kerasModel4linerout/expanded_conv_3/project/Conv2D_weights", "op": "Const", "attr": {"value": {"tensor": {"dtype": "DT_FLOAT", "tensorShape": {"dim": [{"size": "1"}, {"size": "1"}, {"size": "96"}, {"size": "40"}]}}}, "dtype": {"type": "DT_FLOAT"}}}, {"name": "StatefulPartitionedCall/CTC_kerasModel4linerout/expanded_conv_3/project/Conv2D_bn_offset", "op": "Const", "attr": {"dtype": {"type": "DT_FLOAT"}, "value": {"tensor": {"dtype": "DT_FLOAT", "tensorShape": {"dim": [{"size": "40"}]}}}}}, {"name": "StatefulPartitionedCall/CTC_kerasModel4linerout/expanded_conv_4/expand/Conv2D_weights", "op": "Const", "attr": {"dtype": {"type": "DT_FLOAT"}, "value": {"tensor": {"dtype": "DT_FLOAT", "tensorShape": {"dim": [{"size": "1"}, {"size": "1"}, {"size": "40"}, {"size": "240"}]}}}}}, {"name": "StatefulPartitionedCall/CTC_kerasModel4linerout/expanded_conv_4/expand/Conv2D_bn_offset", "op": "Const", "attr": {"value": {"tensor": {"dtype": "DT_FLOAT", "tensorShape": {"dim": [{"size": "240"}]}}}, "dtype": {"type": "DT_FLOAT"}}}, {"name": "StatefulPartitionedCall/CTC_kerasModel4linerout/expanded_conv_4/depthwise/depthwise_weights", "op": "Const", "attr": {"dtype": {"type": "DT_FLOAT"}, "value": {"tensor": {"dtype": "DT_FLOAT", "tensorShape": {"dim": [{"size": "5"}, {"size": "5"}, {"size": "240"}, {"size": "1"}]}}}}}, {"name": "StatefulPartitionedCall/CTC_kerasModel4linerout/expanded_conv_4/depthwise/depthwise_bn_offset", "op": "Const", "attr": {"value": {"tensor": {"dtype": "DT_FLOAT", "tensorShape": {"dim": [{"size": "240"}]}}}, "dtype": {"type": "DT_FLOAT"}}}, {"name": "StatefulPartitionedCall/CTC_kerasModel4linerout/expanded_conv_10/project/Conv2D_weights", "op": "Const", "attr": {"value": {"tensor": {"dtype": "DT_FLOAT", "tensorShape": {"dim": [{"size": "1"}, {"size": "1"}, {"size": "576"}, {"size": "96"}]}}}, "dtype": {"type": "DT_FLOAT"}}}, {"name": "StatefulPartitionedCall/CTC_kerasModel4linerout/expanded_conv_10/project/Conv2D_bn_offset", "op": "Const", "attr": {"dtype": {"type": "DT_FLOAT"}, "value": {"tensor": {"dtype": "DT_FLOAT", "tensorShape": {"dim": [{"size": "96"}]}}}}}, {"name": "StatefulPartitionedCall/CTC_kerasModel4linerout/expanded_conv_4/project/Conv2D_weights", "op": "Const", "attr": {"dtype": {"type": "DT_FLOAT"}, "value": {"tensor": {"dtype": "DT_FLOAT", "tensorShape": {"dim": [{"size": "1"}, {"size": "1"}, {"size": "240"}, {"size": "40"}]}}}}}, {"name": "StatefulPartitionedCall/CTC_kerasModel4linerout/expanded_conv_4/project/Conv2D_bn_offset", "op": "Const", "attr": {"dtype": {"type": "DT_FLOAT"}, "value": {"tensor": {"dtype": "DT_FLOAT", "tensorShape": {"dim": [{"size": "40"}]}}}}}, {"name": "StatefulPartitionedCall/CTC_kerasModel4linerout/expanded_conv_5/expand/Conv2D_weights", "op": "Const", "attr": {"value": {"tensor": {"dtype": "DT_FLOAT", "tensorShape": {"dim": [{"size": "1"}, {"size": "1"}, {"size": "40"}, {"size": "240"}]}}}, "dtype": {"type": "DT_FLOAT"}}}, {"name": "StatefulPartitionedCall/CTC_kerasModel4linerout/expanded_conv_5/expand/Conv2D_bn_offset", "op": "Const", "attr": {"value": {"tensor": {"dtype": "DT_FLOAT", "tensorShape": {"dim": [{"size": "240"}]}}}, "dtype": {"type": "DT_FLOAT"}}}, {"name": "StatefulPartitionedCall/CTC_kerasModel4linerout/expanded_conv_5/depthwise/depthwise_weights", "op": "Const", "attr": {"dtype": {"type": "DT_FLOAT"}, "value": {"tensor": {"dtype": "DT_FLOAT", "tensorShape": {"dim": [{"size": "5"}, {"size": "5"}, {"size": "240"}, {"size": "1"}]}}}}}, {"name": "StatefulPartitionedCall/CTC_kerasModel4linerout/expanded_conv_5/depthwise/depthwise_bn_offset", "op": "Const", "attr": {"dtype": {"type": "DT_FLOAT"}, "value": {"tensor": {"dtype": "DT_FLOAT", "tensorShape": {"dim": [{"size": "240"}]}}}}}, {"name": "StatefulPartitionedCall/CTC_kerasModel4linerout/Conv_1/Conv2D_weights", "op": "Const", "attr": {"value": {"tensor": {"dtype": "DT_FLOAT", "tensorShape": {"dim": [{"size": "1"}, {"size": "1"}, {"size": "96"}, {"size": "576"}]}}}, "dtype": {"type": "DT_FLOAT"}}}, {"name": "StatefulPartitionedCall/CTC_kerasModel4linerout/Conv_1/Conv2D_bn_offset", "op": "Const", "attr": {"value": {"tensor": {"dtype": "DT_FLOAT", "tensorShape": {"dim": [{"size": "576"}]}}}, "dtype": {"type": "DT_FLOAT"}}}, {"name": "StatefulPartitionedCall/CTC_kerasModel4linerout/expanded_conv_5/project/Conv2D_weights", "op": "Const", "attr": {"value": {"tensor": {"dtype": "DT_FLOAT", "tensorShape": {"dim": [{"size": "1"}, {"size": "1"}, {"size": "240"}, {"size": "40"}]}}}, "dtype": {"type": "DT_FLOAT"}}}, {"name": "StatefulPartitionedCall/CTC_kerasModel4linerout/expanded_conv_5/project/Conv2D_bn_offset", "op": "Const", "attr": {"dtype": {"type": "DT_FLOAT"}, "value": {"tensor": {"dtype": "DT_FLOAT", "tensorShape": {"dim": [{"size": "40"}]}}}}}, {"name": "StatefulPartitionedCall/CTC_kerasModel4linerout/expanded_conv_6/expand/Conv2D_weights", "op": "Const", "attr": {"value": {"tensor": {"dtype": "DT_FLOAT", "tensorShape": {"dim": [{"size": "1"}, {"size": "1"}, {"size": "40"}, {"size": "120"}]}}}, "dtype": {"type": "DT_FLOAT"}}}, {"name": "StatefulPartitionedCall/CTC_kerasModel4linerout/expanded_conv_6/expand/Conv2D_bn_offset", "op": "Const", "attr": {"value": {"tensor": {"dtype": "DT_FLOAT", "tensorShape": {"dim": [{"size": "120"}]}}}, "dtype": {"type": "DT_FLOAT"}}}, {"name": "StatefulPartitionedCall/CTC_kerasModel4linerout/expanded_conv_6/depthwise/depthwise_weights", "op": "Const", "attr": {"dtype": {"type": "DT_FLOAT"}, "value": {"tensor": {"dtype": "DT_FLOAT", "tensorShape": {"dim": [{"size": "5"}, {"size": "5"}, {"size": "120"}, {"size": "1"}]}}}}}, {"name": "StatefulPartitionedCall/CTC_kerasModel4linerout/expanded_conv_6/depthwise/depthwise_bn_offset", "op": "Const", "attr": {"value": {"tensor": {"dtype": "DT_FLOAT", "tensorShape": {"dim": [{"size": "120"}]}}}, "dtype": {"type": "DT_FLOAT"}}}, {"name": "StatefulPartitionedCall/CTC_kerasModel4linerout/expanded_conv_6/project/Conv2D_weights", "op": "Const", "attr": {"dtype": {"type": "DT_FLOAT"}, "value": {"tensor": {"dtype": "DT_FLOAT", "tensorShape": {"dim": [{"size": "1"}, {"size": "1"}, {"size": "120"}, {"size": "48"}]}}}}}, {"name": "StatefulPartitionedCall/CTC_kerasModel4linerout/expanded_conv_6/project/Conv2D_bn_offset", "op": "Const", "attr": {"value": {"tensor": {"dtype": "DT_FLOAT", "tensorShape": {"dim": [{"size": "48"}]}}}, "dtype": {"type": "DT_FLOAT"}}}, {"name": "StatefulPartitionedCall/CTC_kerasModel4linerout/expanded_conv_7/expand/Conv2D_weights", "op": "Const", "attr": {"dtype": {"type": "DT_FLOAT"}, "value": {"tensor": {"dtype": "DT_FLOAT", "tensorShape": {"dim": [{"size": "1"}, {"size": "1"}, {"size": "48"}, {"size": "144"}]}}}}}, {"name": "StatefulPartitionedCall/CTC_kerasModel4linerout/expanded_conv_7/expand/Conv2D_bn_offset", "op": "Const", "attr": {"value": {"tensor": {"dtype": "DT_FLOAT", "tensorShape": {"dim": [{"size": "144"}]}}}, "dtype": {"type": "DT_FLOAT"}}}, {"name": "StatefulPartitionedCall/CTC_kerasModel4linerout/expanded_conv_7/depthwise/depthwise_weights", "op": "Const", "attr": {"dtype": {"type": "DT_FLOAT"}, "value": {"tensor": {"dtype": "DT_FLOAT", "tensorShape": {"dim": [{"size": "5"}, {"size": "5"}, {"size": "144"}, {"size": "1"}]}}}}}, {"name": "StatefulPartitionedCall/CTC_kerasModel4linerout/expanded_conv_7/depthwise/depthwise_bn_offset", "op": "Const", "attr": {"dtype": {"type": "DT_FLOAT"}, "value": {"tensor": {"dtype": "DT_FLOAT", "tensorShape": {"dim": [{"size": "144"}]}}}}}, {"name": "StatefulPartitionedCall/CTC_kerasModel4linerout/expanded_conv_7/project/Conv2D_weights", "op": "Const", "attr": {"dtype": {"type": "DT_FLOAT"}, "value": {"tensor": {"dtype": "DT_FLOAT", "tensorShape": {"dim": [{"size": "1"}, {"size": "1"}, {"size": "144"}, {"size": "48"}]}}}}}, {"name": "StatefulPartitionedCall/CTC_kerasModel4linerout/expanded_conv_7/project/Conv2D_bn_offset", "op": "Const", "attr": {"value": {"tensor": {"dtype": "DT_FLOAT", "tensorShape": {"dim": [{"size": "48"}]}}}, "dtype": {"type": "DT_FLOAT"}}}, {"name": "StatefulPartitionedCall/CTC_kerasModel4linerout/expanded_conv_8/expand/Conv2D_weights", "op": "Const", "attr": {"dtype": {"type": "DT_FLOAT"}, "value": {"tensor": {"dtype": "DT_FLOAT", "tensorShape": {"dim": [{"size": "1"}, {"size": "1"}, {"size": "48"}, {"size": "288"}]}}}}}, {"name": "StatefulPartitionedCall/CTC_kerasModel4linerout/expanded_conv_8/expand/Conv2D_bn_offset", "op": "Const", "attr": {"dtype": {"type": "DT_FLOAT"}, "value": {"tensor": {"dtype": "DT_FLOAT", "tensorShape": {"dim": [{"size": "288"}]}}}}}, {"name": "StatefulPartitionedCall/CTC_kerasModel4linerout/expanded_conv_8/depthwise/depthwise_weights", "op": "Const", "attr": {"value": {"tensor": {"dtype": "DT_FLOAT", "tensorShape": {"dim": [{"size": "5"}, {"size": "5"}, {"size": "288"}, {"size": "1"}]}}}, "dtype": {"type": "DT_FLOAT"}}}, {"name": "StatefulPartitionedCall/CTC_kerasModel4linerout/expanded_conv_8/depthwise/depthwise_bn_offset", "op": "Const", "attr": {"value": {"tensor": {"dtype": "DT_FLOAT", "tensorShape": {"dim": [{"size": "288"}]}}}, "dtype": {"type": "DT_FLOAT"}}}, {"name": "StatefulPartitionedCall/CTC_kerasModel4linerout/expanded_conv_8/project/Conv2D_weights", "op": "Const", "attr": {"value": {"tensor": {"dtype": "DT_FLOAT", "tensorShape": {"dim": [{"size": "1"}, {"size": "1"}, {"size": "288"}, {"size": "96"}]}}}, "dtype": {"type": "DT_FLOAT"}}}, {"name": "StatefulPartitionedCall/CTC_kerasModel4linerout/expanded_conv_8/project/Conv2D_bn_offset", "op": "Const", "attr": {"value": {"tensor": {"dtype": "DT_FLOAT", "tensorShape": {"dim": [{"size": "96"}]}}}, "dtype": {"type": "DT_FLOAT"}}}, {"name": "StatefulPartitionedCall/CTC_kerasModel4linerout/expanded_conv_9/expand/Conv2D_weights", "op": "Const", "attr": {"dtype": {"type": "DT_FLOAT"}, "value": {"tensor": {"dtype": "DT_FLOAT", "tensorShape": {"dim": [{"size": "1"}, {"size": "1"}, {"size": "96"}, {"size": "576"}]}}}}}, {"name": "StatefulPartitionedCall/CTC_kerasModel4linerout/expanded_conv_9/expand/Conv2D_bn_offset", "op": "Const", "attr": {"value": {"tensor": {"dtype": "DT_FLOAT", "tensorShape": {"dim": [{"size": "576"}]}}}, "dtype": {"type": "DT_FLOAT"}}}, {"name": "StatefulPartitionedCall/CTC_kerasModel4linerout/expanded_conv_9/depthwise/depthwise_weights", "op": "Const", "attr": {"value": {"tensor": {"dtype": "DT_FLOAT", "tensorShape": {"dim": [{"size": "5"}, {"size": "5"}, {"size": "576"}, {"size": "1"}]}}}, "dtype": {"type": "DT_FLOAT"}}}, {"name": "StatefulPartitionedCall/CTC_kerasModel4linerout/expanded_conv_9/depthwise/depthwise_bn_offset", "op": "Const", "attr": {"dtype": {"type": "DT_FLOAT"}, "value": {"tensor": {"dtype": "DT_FLOAT", "tensorShape": {"dim": [{"size": "576"}]}}}}}, {"name": "StatefulPartitionedCall/CTC_kerasModel4linerout/expanded_conv_9/project/Conv2D_weights", "op": "Const", "attr": {"value": {"tensor": {"dtype": "DT_FLOAT", "tensorShape": {"dim": [{"size": "1"}, {"size": "1"}, {"size": "576"}, {"size": "96"}]}}}, "dtype": {"type": "DT_FLOAT"}}}, {"name": "StatefulPartitionedCall/CTC_kerasModel4linerout/expanded_conv_9/project/Conv2D_bn_offset", "op": "Const", "attr": {"dtype": {"type": "DT_FLOAT"}, "value": {"tensor": {"dtype": "DT_FLOAT", "tensorShape": {"dim": [{"size": "96"}]}}}}}, {"name": "StatefulPartitionedCall/CTC_kerasModel4linerout/expanded_conv_10/expand/Conv2D_weights", "op": "Const", "attr": {"value": {"tensor": {"dtype": "DT_FLOAT", "tensorShape": {"dim": [{"size": "1"}, {"size": "1"}, {"size": "96"}, {"size": "576"}]}}}, "dtype": {"type": "DT_FLOAT"}}}, {"name": "StatefulPartitionedCall/CTC_kerasModel4linerout/expanded_conv_10/expand/Conv2D_bn_offset", "op": "Const", "attr": {"value": {"tensor": {"dtype": "DT_FLOAT", "tensorShape": {"dim": [{"size": "576"}]}}}, "dtype": {"type": "DT_FLOAT"}}}, {"name": "StatefulPartitionedCall/CTC_kerasModel4linerout/expanded_conv_10/depthwise/depthwise_weights", "op": "Const", "attr": {"value": {"tensor": {"dtype": "DT_FLOAT", "tensorShape": {"dim": [{"size": "5"}, {"size": "5"}, {"size": "576"}, {"size": "1"}]}}}, "dtype": {"type": "DT_FLOAT"}}}, {"name": "StatefulPartitionedCall/CTC_kerasModel4linerout/expanded_conv_10/depthwise/depthwise_bn_offset", "op": "Const", "attr": {"value": {"tensor": {"dtype": "DT_FLOAT", "tensorShape": {"dim": [{"size": "576"}]}}}, "dtype": {"type": "DT_FLOAT"}}}, {"name": "StatefulPartitionedCall/CTC_kerasModel4linerout/reshape/Shape", "op": "Shape", "input": ["padded_datas"], "attr": {"out_type": {"type": "DT_INT32"}, "T": {"type": "DT_FLOAT"}}}, {"name": "StatefulPartitionedCall/CTC_kerasModel4linerout/reshape/strided_slice", "op": "StridedSlice", "input": ["StatefulPartitionedCall/CTC_kerasModel4linerout/reshape/Shape", "StatefulPartitionedCall/CTC_kerasModel4linerout/reshape/strided_slice/stack", "StatefulPartitionedCall/CTC_kerasModel4linerout/reshape/strided_slice/stack_1", "StatefulPartitionedCall/CTC_kerasModel4linerout/reshape/strided_slice/stack_2"], "attr": {"T": {"type": "DT_INT32"}, "begin_mask": {"i": "0"}, "Index": {"type": "DT_INT32"}, "new_axis_mask": {"i": "0"}, "ellipsis_mask": {"i": "0"}, "end_mask": {"i": "0"}, "shrink_axis_mask": {"i": "1"}}}, {"name": "StatefulPartitionedCall/CTC_kerasModel4linerout/reshape/Reshape/shape", "op": "Pack", "input": ["StatefulPartitionedCall/CTC_kerasModel4linerout/reshape/strided_slice", "StatefulPartitionedCall/CTC_kerasModel4linerout/reshape/Reshape/shape/1", "StatefulPartitionedCall/CTC_kerasModel4linerout/reshape/Reshape/shape/2", "StatefulPartitionedCall/CTC_kerasModel4linerout/reshape/Reshape/shape/3"], "attr": {"N": {"i": "4"}, "axis": {"i": "0"}, "T": {"type": "DT_INT32"}}}, {"name": "StatefulPartitionedCall/CTC_kerasModel4linerout/reshape/Reshape", "op": "Reshape", "input": ["padded_datas", "StatefulPartitionedCall/CTC_kerasModel4linerout/reshape/Reshape/shape"], "attr": {"Tshape": {"type": "DT_INT32"}, "T": {"type": "DT_FLOAT"}}}, {"name": "StatefulPartitionedCall/CTC_kerasModel4linerout/Conv/BatchNorm/FusedBatchNormV3", "op": "_FusedConv2D", "input": ["StatefulPartitionedCall/CTC_kerasModel4linerout/reshape/Reshape", "StatefulPartitionedCall/CTC_kerasModel4linerout/Conv/Conv2D_weights", "StatefulPartitionedCall/CTC_kerasModel4linerout/Conv/Conv2D_bn_offset"], "device": "/device:CPU:0", "attr": {"explicit_paddings": {"list": {}}, "T": {"type": "DT_FLOAT"}, "padding": {"s": "U0FNRQ=="}, "epsilon": {"f": 0.0}, "dilations": {"list": {"i": ["1", "1", "1", "1"]}}, "use_cudnn_on_gpu": {"b": true}, "data_format": {"s": "TkhXQw=="}, "num_args": {"i": "1"}, "fused_ops": {"list": {"s": ["Qmlhc0FkZA=="]}}, "strides": {"list": {"i": ["1", "1", "1", "1"]}}}}, {"name": "StatefulPartitionedCall/CTC_kerasModel4linerout/tf_op_layer_AddV2/AddV2", "op": "AddV2", "input": ["StatefulPartitionedCall/CTC_kerasModel4linerout/Conv/BatchNorm/FusedBatchNormV3", "StatefulPartitionedCall/CTC_kerasModel4linerout/tf_op_layer_AddV2/AddV2/y"], "attr": {"T": {"type": "DT_FLOAT"}, "_cloned": {"b": true}}}, {"name": "StatefulPartitionedCall/CTC_kerasModel4linerout/re_lu/Relu6", "op": "Relu6", "input": ["StatefulPartitionedCall/CTC_kerasModel4linerout/tf_op_layer_AddV2/AddV2"], "attr": {"T": {"type": "DT_FLOAT"}}}, {"name": "StatefulPartitionedCall/CTC_kerasModel4linerout/tf_op_layer_Mul/Mul", "op": "Mul", "input": ["StatefulPartitionedCall/CTC_kerasModel4linerout/tf_op_layer_Mul/Mul/y", "StatefulPartitionedCall/CTC_kerasModel4linerout/re_lu/Relu6"], "attr": {"_grappler_ArithmeticOptimizer_MinimizeBroadcasts": {"b": true}, "_cloned": {"b": true}, "T": {"type": "DT_FLOAT"}}}, {"name": "StatefulPartitionedCall/CTC_kerasModel4linerout/multiply/mul", "op": "Mul", "input": ["StatefulPartitionedCall/CTC_kerasModel4linerout/tf_op_layer_Mul/Mul", "StatefulPartitionedCall/CTC_kerasModel4linerout/Conv/BatchNorm/FusedBatchNormV3"], "attr": {"T": {"type": "DT_FLOAT"}, "_grappler_ArithmeticOptimizer_MinimizeBroadcasts": {"b": true}}}, {"name": "StatefulPartitionedCall/CTC_kerasModel4linerout/expanded_conv/depthwise/pad/Pad", "op": "Pad", "input": ["StatefulPartitionedCall/CTC_kerasModel4linerout/multiply/mul", "StatefulPartitionedCall/CTC_kerasModel4linerout/expanded_conv/depthwise/pad/Pad/paddings"], "attr": {"Tpaddings": {"type": "DT_INT32"}, "T": {"type": "DT_FLOAT"}}}, {"name": "StatefulPartitionedCall/CTC_kerasModel4linerout/expanded_conv/depthwise/depthwise", "op": "FusedDepthwiseConv2dNative", "input": ["StatefulPartitionedCall/CTC_kerasModel4linerout/expanded_conv/depthwise/pad/Pad", "StatefulPartitionedCall/CTC_kerasModel4linerout/expanded_conv/depthwise/depthwise_weights", "StatefulPartitionedCall/CTC_kerasModel4linerout/expanded_conv/depthwise/depthwise_bn_offset"], "attr": {"T": {"type": "DT_FLOAT"}, "fused_ops": {"list": {"s": ["Qmlhc0FkZA==", "UmVsdQ=="]}}, "explicit_paddings": {"list": {}}, "dilations": {"list": {"i": ["1", "1", "1", "1"]}}, "strides": {"list": {"i": ["1", "2", "2", "1"]}}, "num_args": {"i": "1"}, "padding": {"s": "VkFMSUQ="}, "data_format": {"s": "TkhXQw=="}}}, {"name": "StatefulPartitionedCall/CTC_kerasModel4linerout/expanded_conv/squeeze_excite/AvgPool/Mean", "op": "Mean", "input": ["StatefulPartitionedCall/CTC_kerasModel4linerout/expanded_conv/depthwise/depthwise", "StatefulPartitionedCall/CTC_kerasModel4linerout/expanded_conv/squeeze_excite/AvgPool/Mean/reduction_indices"], "attr": {"keep_dims": {"b": false}, "T": {"type": "DT_FLOAT"}, "Tidx": {"type": "DT_INT32"}}}, {"name": "StatefulPartitionedCall/CTC_kerasModel4linerout/reshape_1/Shape", "op": "Shape", "input": ["StatefulPartitionedCall/CTC_kerasModel4linerout/expanded_conv/squeeze_excite/AvgPool/Mean"], "attr": {"T": {"type": "DT_FLOAT"}, "out_type": {"type": "DT_INT32"}}}, {"name": "StatefulPartitionedCall/CTC_kerasModel4linerout/reshape_1/strided_slice", "op": "StridedSlice", "input": ["StatefulPartitionedCall/CTC_kerasModel4linerout/reshape_1/Shape", "StatefulPartitionedCall/CTC_kerasModel4linerout/reshape_1/strided_slice/stack", "StatefulPartitionedCall/CTC_kerasModel4linerout/reshape_1/strided_slice/stack_1", "StatefulPartitionedCall/CTC_kerasModel4linerout/reshape_1/strided_slice/stack_2"], "attr": {"ellipsis_mask": {"i": "0"}, "Index": {"type": "DT_INT32"}, "new_axis_mask": {"i": "0"}, "end_mask": {"i": "0"}, "shrink_axis_mask": {"i": "1"}, "begin_mask": {"i": "0"}, "T": {"type": "DT_INT32"}}}, {"name": "StatefulPartitionedCall/CTC_kerasModel4linerout/reshape_1/Reshape/shape", "op": "Pack", "input": ["StatefulPartitionedCall/CTC_kerasModel4linerout/reshape_1/strided_slice", "StatefulPartitionedCall/CTC_kerasModel4linerout/reshape_1/Reshape/shape/1", "StatefulPartitionedCall/CTC_kerasModel4linerout/reshape_1/Reshape/shape/2", "StatefulPartitionedCall/CTC_kerasModel4linerout/reshape_1/Reshape/shape/3"], "attr": {"axis": {"i": "0"}, "N": {"i": "4"}, "T": {"type": "DT_INT32"}}}, {"name": "StatefulPartitionedCall/CTC_kerasModel4linerout/reshape_1/Reshape", "op": "Reshape", "input": ["StatefulPartitionedCall/CTC_kerasModel4linerout/expanded_conv/squeeze_excite/AvgPool/Mean", "StatefulPartitionedCall/CTC_kerasModel4linerout/reshape_1/Reshape/shape"], "attr": {"T": {"type": "DT_FLOAT"}, "Tshape": {"type": "DT_INT32"}}}, {"name": "StatefulPartitionedCall/CTC_kerasModel4linerout/expanded_conv/squeeze_excite/Relu/Relu", "op": "_FusedConv2D", "input": ["StatefulPartitionedCall/CTC_kerasModel4linerout/reshape_1/Reshape", "unknown_9", "unknown_10"], "device": "/device:CPU:0", "attr": {"explicit_paddings": {"list": {}}, "data_format": {"s": "TkhXQw=="}, "padding": {"s": "U0FNRQ=="}, "T": {"type": "DT_FLOAT"}, "strides": {"list": {"i": ["1", "1", "1", "1"]}}, "num_args": {"i": "1"}, "dilations": {"list": {"i": ["1", "1", "1", "1"]}}, "use_cudnn_on_gpu": {"b": true}, "fused_ops": {"list": {"s": ["Qmlhc0FkZA==", "UmVsdQ=="]}}, "epsilon": {"f": 0.0}}}, {"name": "StatefulPartitionedCall/CTC_kerasModel4linerout/expanded_conv/squeeze_excite/Conv_1/BiasAdd", "op": "_FusedConv2D", "input": ["StatefulPartitionedCall/CTC_kerasModel4linerout/expanded_conv/squeeze_excite/Relu/Relu", "unknown_11", "unknown_12"], "device": "/device:CPU:0", "attr": {"use_cudnn_on_gpu": {"b": true}, "explicit_paddings": {"list": {}}, "epsilon": {"f": 0.0}, "num_args": {"i": "1"}, "fused_ops": {"list": {"s": ["Qmlhc0FkZA=="]}}, "data_format": {"s": "TkhXQw=="}, "strides": {"list": {"i": ["1", "1", "1", "1"]}}, "dilations": {"list": {"i": ["1", "1", "1", "1"]}}, "padding": {"s": "U0FNRQ=="}, "T": {"type": "DT_FLOAT"}}}, {"name": "StatefulPartitionedCall/CTC_kerasModel4linerout/tf_op_layer_AddV2_1/AddV2_1", "op": "AddV2", "input": ["StatefulPartitionedCall/CTC_kerasModel4linerout/expanded_conv/squeeze_excite/Conv_1/BiasAdd", "StatefulPartitionedCall/CTC_kerasModel4linerout/tf_op_layer_AddV2_1/AddV2_1/y"], "attr": {"_cloned": {"b": true}, "T": {"type": "DT_FLOAT"}}}, {"name": "StatefulPartitionedCall/CTC_kerasModel4linerout/re_lu_2/Relu6", "op": "Relu6", "input": ["StatefulPartitionedCall/CTC_kerasModel4linerout/tf_op_layer_AddV2_1/AddV2_1"], "attr": {"T": {"type": "DT_FLOAT"}}}, {"name": "StatefulPartitionedCall/CTC_kerasModel4linerout/tf_op_layer_Mul_1/Mul_1", "op": "Mul", "input": ["StatefulPartitionedCall/CTC_kerasModel4linerout/tf_op_layer_Mul_1/Mul_1/y", "StatefulPartitionedCall/CTC_kerasModel4linerout/re_lu_2/Relu6"], "attr": {"T": {"type": "DT_FLOAT"}, "_cloned": {"b": true}, "_grappler_ArithmeticOptimizer_MinimizeBroadcasts": {"b": true}}}, {"name": "StatefulPartitionedCall/CTC_kerasModel4linerout/expanded_conv/squeeze_excite/Mul/mul", "op": "Mul", "input": ["StatefulPartitionedCall/CTC_kerasModel4linerout/tf_op_layer_Mul_1/Mul_1", "StatefulPartitionedCall/CTC_kerasModel4linerout/expanded_conv/depthwise/depthwise"], "attr": {"T": {"type": "DT_FLOAT"}, "_grappler_ArithmeticOptimizer_MinimizeBroadcasts": {"b": true}}}, {"name": "StatefulPartitionedCall/CTC_kerasModel4linerout/expanded_conv/project/BatchNorm/FusedBatchNormV3", "op": "_FusedConv2D", "input": ["StatefulPartitionedCall/CTC_kerasModel4linerout/expanded_conv/squeeze_excite/Mul/mul", "StatefulPartitionedCall/CTC_kerasModel4linerout/expanded_conv/project/Conv2D_weights", "StatefulPartitionedCall/CTC_kerasModel4linerout/expanded_conv/project/Conv2D_bn_offset"], "device": "/device:CPU:0", "attr": {"epsilon": {"f": 0.0}, "data_format": {"s": "TkhXQw=="}, "explicit_paddings": {"list": {}}, "dilations": {"list": {"i": ["1", "1", "1", "1"]}}, "fused_ops": {"list": {"s": ["Qmlhc0FkZA=="]}}, "use_cudnn_on_gpu": {"b": true}, "padding": {"s": "U0FNRQ=="}, "strides": {"list": {"i": ["1", "1", "1", "1"]}}, "T": {"type": "DT_FLOAT"}, "num_args": {"i": "1"}}}, {"name": "StatefulPartitionedCall/CTC_kerasModel4linerout/re_lu_3/Relu", "op": "_FusedConv2D", "input": ["StatefulPartitionedCall/CTC_kerasModel4linerout/expanded_conv/project/BatchNorm/FusedBatchNormV3", "StatefulPartitionedCall/CTC_kerasModel4linerout/expanded_conv_1/expand/Conv2D_weights", "StatefulPartitionedCall/CTC_kerasModel4linerout/expanded_conv_1/expand/Conv2D_bn_offset"], "device": "/device:CPU:0", "attr": {"T": {"type": "DT_FLOAT"}, "fused_ops": {"list": {"s": ["Qmlhc0FkZA==", "UmVsdQ=="]}}, "padding": {"s": "U0FNRQ=="}, "num_args": {"i": "1"}, "dilations": {"list": {"i": ["1", "1", "1", "1"]}}, "explicit_paddings": {"list": {}}, "data_format": {"s": "TkhXQw=="}, "epsilon": {"f": 0.0}, "strides": {"list": {"i": ["1", "1", "1", "1"]}}, "use_cudnn_on_gpu": {"b": true}}}, {"name": "StatefulPartitionedCall/CTC_kerasModel4linerout/expanded_conv_1/depthwise/pad/Pad", "op": "Pad", "input": ["StatefulPartitionedCall/CTC_kerasModel4linerout/re_lu_3/Relu", "StatefulPartitionedCall/CTC_kerasModel4linerout/expanded_conv_1/depthwise/pad/Pad/paddings"], "attr": {"Tpaddings": {"type": "DT_INT32"}, "T": {"type": "DT_FLOAT"}}}, {"name": "StatefulPartitionedCall/CTC_kerasModel4linerout/expanded_conv_1/depthwise/depthwise", "op": "FusedDepthwiseConv2dNative", "input": ["StatefulPartitionedCall/CTC_kerasModel4linerout/expanded_conv_1/depthwise/pad/Pad", "StatefulPartitionedCall/CTC_kerasModel4linerout/expanded_conv_1/depthwise/depthwise_weights", "StatefulPartitionedCall/CTC_kerasModel4linerout/expanded_conv_1/depthwise/depthwise_bn_offset"], "attr": {"explicit_paddings": {"list": {}}, "fused_ops": {"list": {"s": ["Qmlhc0FkZA==", "UmVsdQ=="]}}, "data_format": {"s": "TkhXQw=="}, "T": {"type": "DT_FLOAT"}, "padding": {"s": "VkFMSUQ="}, "num_args": {"i": "1"}, "strides": {"list": {"i": ["1", "2", "2", "1"]}}, "dilations": {"list": {"i": ["1", "1", "1", "1"]}}}}, {"name": "StatefulPartitionedCall/CTC_kerasModel4linerout/expanded_conv_1/project/BatchNorm/FusedBatchNormV3", "op": "_FusedConv2D", "input": ["StatefulPartitionedCall/CTC_kerasModel4linerout/expanded_conv_1/depthwise/depthwise", "StatefulPartitionedCall/CTC_kerasModel4linerout/expanded_conv_1/project/Conv2D_weights", "StatefulPartitionedCall/CTC_kerasModel4linerout/expanded_conv_1/project/Conv2D_bn_offset"], "device": "/device:CPU:0", "attr": {"epsilon": {"f": 0.0}, "T": {"type": "DT_FLOAT"}, "use_cudnn_on_gpu": {"b": true}, "padding": {"s": "U0FNRQ=="}, "explicit_paddings": {"list": {}}, "dilations": {"list": {"i": ["1", "1", "1", "1"]}}, "data_format": {"s": "TkhXQw=="}, "fused_ops": {"list": {"s": ["Qmlhc0FkZA=="]}}, "num_args": {"i": "1"}, "strides": {"list": {"i": ["1", "1", "1", "1"]}}}}, {"name": "StatefulPartitionedCall/CTC_kerasModel4linerout/re_lu_5/Relu", "op": "_FusedConv2D", "input": ["StatefulPartitionedCall/CTC_kerasModel4linerout/expanded_conv_1/project/BatchNorm/FusedBatchNormV3", "StatefulPartitionedCall/CTC_kerasModel4linerout/expanded_conv_2/expand/Conv2D_weights", "StatefulPartitionedCall/CTC_kerasModel4linerout/expanded_conv_2/expand/Conv2D_bn_offset"], "device": "/device:CPU:0", "attr": {"fused_ops": {"list": {"s": ["Qmlhc0FkZA==", "UmVsdQ=="]}}, "epsilon": {"f": 0.0}, "explicit_paddings": {"list": {}}, "data_format": {"s": "TkhXQw=="}, "num_args": {"i": "1"}, "strides": {"list": {"i": ["1", "1", "1", "1"]}}, "T": {"type": "DT_FLOAT"}, "dilations": {"list": {"i": ["1", "1", "1", "1"]}}, "use_cudnn_on_gpu": {"b": true}, "padding": {"s": "U0FNRQ=="}}}, {"name": "StatefulPartitionedCall/CTC_kerasModel4linerout/expanded_conv_2/depthwise/depthwise", "op": "FusedDepthwiseConv2dNative", "input": ["StatefulPartitionedCall/CTC_kerasModel4linerout/re_lu_5/Relu", "StatefulPartitionedCall/CTC_kerasModel4linerout/expanded_conv_2/depthwise/depthwise_weights", "StatefulPartitionedCall/CTC_kerasModel4linerout/expanded_conv_2/depthwise/depthwise_bn_offset"], "attr": {"strides": {"list": {"i": ["1", "1", "1", "1"]}}, "data_format": {"s": "TkhXQw=="}, "explicit_paddings": {"list": {}}, "fused_ops": {"list": {"s": ["Qmlhc0FkZA==", "UmVsdQ=="]}}, "dilations": {"list": {"i": ["1", "1", "1", "1"]}}, "num_args": {"i": "1"}, "T": {"type": "DT_FLOAT"}, "padding": {"s": "U0FNRQ=="}}}, {"name": "StatefulPartitionedCall/CTC_kerasModel4linerout/expanded_conv_2/project/BatchNorm/FusedBatchNormV3", "op": "_FusedConv2D", "input": ["StatefulPartitionedCall/CTC_kerasModel4linerout/expanded_conv_2/depthwise/depthwise", "StatefulPartitionedCall/CTC_kerasModel4linerout/expanded_conv_2/project/Conv2D_weights", "StatefulPartitionedCall/CTC_kerasModel4linerout/expanded_conv_2/project/Conv2D_bn_offset"], "device": "/device:CPU:0", "attr": {"epsilon": {"f": 0.0}, "explicit_paddings": {"list": {}}, "dilations": {"list": {"i": ["1", "1", "1", "1"]}}, "data_format": {"s": "TkhXQw=="}, "padding": {"s": "U0FNRQ=="}, "strides": {"list": {"i": ["1", "1", "1", "1"]}}, "fused_ops": {"list": {"s": ["Qmlhc0FkZA=="]}}, "use_cudnn_on_gpu": {"b": true}, "T": {"type": "DT_FLOAT"}, "num_args": {"i": "1"}}}, {"name": "StatefulPartitionedCall/CTC_kerasModel4linerout/expanded_conv_2/Add/add", "op": "AddV2", "input": ["StatefulPartitionedCall/CTC_kerasModel4linerout/expanded_conv_1/project/BatchNorm/FusedBatchNormV3", "StatefulPartitionedCall/CTC_kerasModel4linerout/expanded_conv_2/project/BatchNorm/FusedBatchNormV3"], "attr": {"T": {"type": "DT_FLOAT"}}}, {"name": "StatefulPartitionedCall/CTC_kerasModel4linerout/expanded_conv_3/expand/BatchNorm/FusedBatchNormV3", "op": "_FusedConv2D", "input": ["StatefulPartitionedCall/CTC_kerasModel4linerout/expanded_conv_2/Add/add", "StatefulPartitionedCall/CTC_kerasModel4linerout/expanded_conv_3/expand/Conv2D_weights", "StatefulPartitionedCall/CTC_kerasModel4linerout/expanded_conv_3/expand/Conv2D_bn_offset"], "device": "/device:CPU:0", "attr": {"fused_ops": {"list": {"s": ["Qmlhc0FkZA=="]}}, "num_args": {"i": "1"}, "padding": {"s": "U0FNRQ=="}, "T": {"type": "DT_FLOAT"}, "data_format": {"s": "TkhXQw=="}, "explicit_paddings": {"list": {}}, "dilations": {"list": {"i": ["1", "1", "1", "1"]}}, "use_cudnn_on_gpu": {"b": true}, "epsilon": {"f": 0.0}, "strides": {"list": {"i": ["1", "1", "1", "1"]}}}}, {"name": "StatefulPartitionedCall/CTC_kerasModel4linerout/tf_op_layer_AddV2_2/AddV2_2", "op": "AddV2", "input": ["StatefulPartitionedCall/CTC_kerasModel4linerout/expanded_conv_3/expand/BatchNorm/FusedBatchNormV3", "StatefulPartitionedCall/CTC_kerasModel4linerout/tf_op_layer_AddV2_2/AddV2_2/y"], "attr": {"T": {"type": "DT_FLOAT"}, "_cloned": {"b": true}}}, {"name": "StatefulPartitionedCall/CTC_kerasModel4linerout/re_lu_7/Relu6", "op": "Relu6", "input": ["StatefulPartitionedCall/CTC_kerasModel4linerout/tf_op_layer_AddV2_2/AddV2_2"], "attr": {"T": {"type": "DT_FLOAT"}}}, {"name": "StatefulPartitionedCall/CTC_kerasModel4linerout/tf_op_layer_Mul_2/Mul_2", "op": "Mul", "input": ["StatefulPartitionedCall/CTC_kerasModel4linerout/tf_op_layer_Mul_2/Mul_2/y", "StatefulPartitionedCall/CTC_kerasModel4linerout/re_lu_7/Relu6"], "attr": {"_grappler_ArithmeticOptimizer_MinimizeBroadcasts": {"b": true}, "T": {"type": "DT_FLOAT"}, "_cloned": {"b": true}}}, {"name": "StatefulPartitionedCall/CTC_kerasModel4linerout/multiply_1/mul", "op": "Mul", "input": ["StatefulPartitionedCall/CTC_kerasModel4linerout/tf_op_layer_Mul_2/Mul_2", "StatefulPartitionedCall/CTC_kerasModel4linerout/expanded_conv_3/expand/BatchNorm/FusedBatchNormV3"], "attr": {"T": {"type": "DT_FLOAT"}, "_grappler_ArithmeticOptimizer_MinimizeBroadcasts": {"b": true}}}, {"name": "StatefulPartitionedCall/CTC_kerasModel4linerout/expanded_conv_3/depthwise/pad/Pad", "op": "Pad", "input": ["StatefulPartitionedCall/CTC_kerasModel4linerout/multiply_1/mul", "StatefulPartitionedCall/CTC_kerasModel4linerout/expanded_conv_3/depthwise/pad/Pad/paddings"], "attr": {"Tpaddings": {"type": "DT_INT32"}, "T": {"type": "DT_FLOAT"}}}, {"name": "StatefulPartitionedCall/CTC_kerasModel4linerout/expanded_conv_3/depthwise/depthwise", "op": "FusedDepthwiseConv2dNative", "input": ["StatefulPartitionedCall/CTC_kerasModel4linerout/expanded_conv_3/depthwise/pad/Pad", "StatefulPartitionedCall/CTC_kerasModel4linerout/expanded_conv_3/depthwise/depthwise_weights", "StatefulPartitionedCall/CTC_kerasModel4linerout/expanded_conv_3/depthwise/depthwise_bn_offset"], "attr": {"num_args": {"i": "1"}, "T": {"type": "DT_FLOAT"}, "dilations": {"list": {"i": ["1", "1", "1", "1"]}}, "strides": {"list": {"i": ["1", "2", "2", "1"]}}, "fused_ops": {"list": {"s": ["Qmlhc0FkZA=="]}}, "explicit_paddings": {"list": {}}, "padding": {"s": "VkFMSUQ="}, "data_format": {"s": "TkhXQw=="}}}, {"name": "StatefulPartitionedCall/CTC_kerasModel4linerout/tf_op_layer_AddV2_3/AddV2_3", "op": "AddV2", "input": ["StatefulPartitionedCall/CTC_kerasModel4linerout/expanded_conv_3/depthwise/depthwise", "StatefulPartitionedCall/CTC_kerasModel4linerout/tf_op_layer_AddV2_3/AddV2_3/y"], "attr": {"T": {"type": "DT_FLOAT"}, "_cloned": {"b": true}}}, {"name": "StatefulPartitionedCall/CTC_kerasModel4linerout/re_lu_8/Relu6", "op": "Relu6", "input": ["StatefulPartitionedCall/CTC_kerasModel4linerout/tf_op_layer_AddV2_3/AddV2_3"], "attr": {"T": {"type": "DT_FLOAT"}}}, {"name": "StatefulPartitionedCall/CTC_kerasModel4linerout/tf_op_layer_Mul_3/Mul_3", "op": "Mul", "input": ["StatefulPartitionedCall/CTC_kerasModel4linerout/tf_op_layer_Mul_3/Mul_3/y", "StatefulPartitionedCall/CTC_kerasModel4linerout/re_lu_8/Relu6"], "attr": {"_cloned": {"b": true}, "_grappler_ArithmeticOptimizer_MinimizeBroadcasts": {"b": true}, "T": {"type": "DT_FLOAT"}}}, {"name": "StatefulPartitionedCall/CTC_kerasModel4linerout/multiply_2/mul", "op": "Mul", "input": ["StatefulPartitionedCall/CTC_kerasModel4linerout/tf_op_layer_Mul_3/Mul_3", "StatefulPartitionedCall/CTC_kerasModel4linerout/expanded_conv_3/depthwise/depthwise"], "attr": {"T": {"type": "DT_FLOAT"}, "_grappler_ArithmeticOptimizer_MinimizeBroadcasts": {"b": true}}}, {"name": "StatefulPartitionedCall/CTC_kerasModel4linerout/expanded_conv_3/squeeze_excite/AvgPool/Mean", "op": "Mean", "input": ["StatefulPartitionedCall/CTC_kerasModel4linerout/multiply_2/mul", "StatefulPartitionedCall/CTC_kerasModel4linerout/expanded_conv_3/squeeze_excite/AvgPool/Mean/reduction_indices"], "attr": {"Tidx": {"type": "DT_INT32"}, "T": {"type": "DT_FLOAT"}, "keep_dims": {"b": false}}}, {"name": "StatefulPartitionedCall/CTC_kerasModel4linerout/reshape_2/Shape", "op": "Shape", "input": ["StatefulPartitionedCall/CTC_kerasModel4linerout/expanded_conv_3/squeeze_excite/AvgPool/Mean"], "attr": {"out_type": {"type": "DT_INT32"}, "T": {"type": "DT_FLOAT"}}}, {"name": "StatefulPartitionedCall/CTC_kerasModel4linerout/reshape_2/strided_slice", "op": "StridedSlice", "input": ["StatefulPartitionedCall/CTC_kerasModel4linerout/reshape_2/Shape", "StatefulPartitionedCall/CTC_kerasModel4linerout/reshape_2/strided_slice/stack", "StatefulPartitionedCall/CTC_kerasModel4linerout/reshape_2/strided_slice/stack_1", "StatefulPartitionedCall/CTC_kerasModel4linerout/reshape_2/strided_slice/stack_2"], "attr": {"T": {"type": "DT_INT32"}, "begin_mask": {"i": "0"}, "ellipsis_mask": {"i": "0"}, "end_mask": {"i": "0"}, "new_axis_mask": {"i": "0"}, "shrink_axis_mask": {"i": "1"}, "Index": {"type": "DT_INT32"}}}, {"name": "StatefulPartitionedCall/CTC_kerasModel4linerout/reshape_2/Reshape/shape", "op": "Pack", "input": ["StatefulPartitionedCall/CTC_kerasModel4linerout/reshape_2/strided_slice", "StatefulPartitionedCall/CTC_kerasModel4linerout/reshape_2/Reshape/shape/1", "StatefulPartitionedCall/CTC_kerasModel4linerout/reshape_2/Reshape/shape/2", "StatefulPartitionedCall/CTC_kerasModel4linerout/reshape_2/Reshape/shape/3"], "attr": {"T": {"type": "DT_INT32"}, "N": {"i": "4"}, "axis": {"i": "0"}}}, {"name": "StatefulPartitionedCall/CTC_kerasModel4linerout/reshape_2/Reshape", "op": "Reshape", "input": ["StatefulPartitionedCall/CTC_kerasModel4linerout/expanded_conv_3/squeeze_excite/AvgPool/Mean", "StatefulPartitionedCall/CTC_kerasModel4linerout/reshape_2/Reshape/shape"], "attr": {"Tshape": {"type": "DT_INT32"}, "T": {"type": "DT_FLOAT"}}}, {"name": "StatefulPartitionedCall/CTC_kerasModel4linerout/expanded_conv_3/squeeze_excite/Relu/Relu", "op": "_FusedConv2D", "input": ["StatefulPartitionedCall/CTC_kerasModel4linerout/reshape_2/Reshape", "unknown_58", "unknown_59"], "device": "/device:CPU:0", "attr": {"epsilon": {"f": 0.0}, "data_format": {"s": "TkhXQw=="}, "dilations": {"list": {"i": ["1", "1", "1", "1"]}}, "explicit_paddings": {"list": {}}, "padding": {"s": "U0FNRQ=="}, "use_cudnn_on_gpu": {"b": true}, "fused_ops": {"list": {"s": ["Qmlhc0FkZA==", "UmVsdQ=="]}}, "strides": {"list": {"i": ["1", "1", "1", "1"]}}, "num_args": {"i": "1"}, "T": {"type": "DT_FLOAT"}}}, {"name": "StatefulPartitionedCall/CTC_kerasModel4linerout/expanded_conv_3/squeeze_excite/Conv_1/BiasAdd", "op": "_FusedConv2D", "input": ["StatefulPartitionedCall/CTC_kerasModel4linerout/expanded_conv_3/squeeze_excite/Relu/Relu", "unknown_60", "unknown_61"], "device": "/device:CPU:0", "attr": {"padding": {"s": "U0FNRQ=="}, "T": {"type": "DT_FLOAT"}, "dilations": {"list": {"i": ["1", "1", "1", "1"]}}, "num_args": {"i": "1"}, "use_cudnn_on_gpu": {"b": true}, "explicit_paddings": {"list": {}}, "strides": {"list": {"i": ["1", "1", "1", "1"]}}, "data_format": {"s": "TkhXQw=="}, "epsilon": {"f": 0.0}, "fused_ops": {"list": {"s": ["Qmlhc0FkZA=="]}}}}, {"name": "StatefulPartitionedCall/CTC_kerasModel4linerout/tf_op_layer_AddV2_4/AddV2_4", "op": "AddV2", "input": ["StatefulPartitionedCall/CTC_kerasModel4linerout/expanded_conv_3/squeeze_excite/Conv_1/BiasAdd", "StatefulPartitionedCall/CTC_kerasModel4linerout/tf_op_layer_AddV2_4/AddV2_4/y"], "attr": {"_cloned": {"b": true}, "T": {"type": "DT_FLOAT"}}}, {"name": "StatefulPartitionedCall/CTC_kerasModel4linerout/re_lu_9/Relu6", "op": "Relu6", "input": ["StatefulPartitionedCall/CTC_kerasModel4linerout/tf_op_layer_AddV2_4/AddV2_4"], "attr": {"T": {"type": "DT_FLOAT"}}}, {"name": "StatefulPartitionedCall/CTC_kerasModel4linerout/tf_op_layer_Mul_4/Mul_4", "op": "Mul", "input": ["StatefulPartitionedCall/CTC_kerasModel4linerout/tf_op_layer_Mul_4/Mul_4/y", "StatefulPartitionedCall/CTC_kerasModel4linerout/re_lu_9/Relu6"], "attr": {"T": {"type": "DT_FLOAT"}, "_cloned": {"b": true}, "_grappler_ArithmeticOptimizer_MinimizeBroadcasts": {"b": true}}}, {"name": "StatefulPartitionedCall/CTC_kerasModel4linerout/expanded_conv_3/squeeze_excite/Mul/mul", "op": "Mul", "input": ["StatefulPartitionedCall/CTC_kerasModel4linerout/tf_op_layer_Mul_4/Mul_4", "StatefulPartitionedCall/CTC_kerasModel4linerout/multiply_2/mul"], "attr": {"T": {"type": "DT_FLOAT"}, "_grappler_ArithmeticOptimizer_MinimizeBroadcasts": {"b": true}}}, {"name": "StatefulPartitionedCall/CTC_kerasModel4linerout/expanded_conv_3/project/BatchNorm/FusedBatchNormV3", "op": "_FusedConv2D", "input": ["StatefulPartitionedCall/CTC_kerasModel4linerout/expanded_conv_3/squeeze_excite/Mul/mul", "StatefulPartitionedCall/CTC_kerasModel4linerout/expanded_conv_3/project/Conv2D_weights", "StatefulPartitionedCall/CTC_kerasModel4linerout/expanded_conv_3/project/Conv2D_bn_offset"], "device": "/device:CPU:0", "attr": {"data_format": {"s": "TkhXQw=="}, "explicit_paddings": {"list": {}}, "epsilon": {"f": 0.0}, "dilations": {"list": {"i": ["1", "1", "1", "1"]}}, "num_args": {"i": "1"}, "padding": {"s": "U0FNRQ=="}, "fused_ops": {"list": {"s": ["Qmlhc0FkZA=="]}}, "strides": {"list": {"i": ["1", "1", "1", "1"]}}, "T": {"type": "DT_FLOAT"}, "use_cudnn_on_gpu": {"b": true}}}, {"name": "StatefulPartitionedCall/CTC_kerasModel4linerout/expanded_conv_4/expand/BatchNorm/FusedBatchNormV3", "op": "_FusedConv2D", "input": ["StatefulPartitionedCall/CTC_kerasModel4linerout/expanded_conv_3/project/BatchNorm/FusedBatchNormV3", "StatefulPartitionedCall/CTC_kerasModel4linerout/expanded_conv_4/expand/Conv2D_weights", "StatefulPartitionedCall/CTC_kerasModel4linerout/expanded_conv_4/expand/Conv2D_bn_offset"], "device": "/device:CPU:0", "attr": {"use_cudnn_on_gpu": {"b": true}, "explicit_paddings": {"list": {}}, "fused_ops": {"list": {"s": ["Qmlhc0FkZA=="]}}, "epsilon": {"f": 0.0}, "data_format": {"s": "TkhXQw=="}, "dilations": {"list": {"i": ["1", "1", "1", "1"]}}, "strides": {"list": {"i": ["1", "1", "1", "1"]}}, "T": {"type": "DT_FLOAT"}, "num_args": {"i": "1"}, "padding": {"s": "U0FNRQ=="}}}, {"name": "StatefulPartitionedCall/CTC_kerasModel4linerout/tf_op_layer_AddV2_5/AddV2_5", "op": "AddV2", "input": ["StatefulPartitionedCall/CTC_kerasModel4linerout/expanded_conv_4/expand/BatchNorm/FusedBatchNormV3", "StatefulPartitionedCall/CTC_kerasModel4linerout/tf_op_layer_AddV2_5/AddV2_5/y"], "attr": {"T": {"type": "DT_FLOAT"}, "_cloned": {"b": true}}}, {"name": "StatefulPartitionedCall/CTC_kerasModel4linerout/re_lu_10/Relu6", "op": "Relu6", "input": ["StatefulPartitionedCall/CTC_kerasModel4linerout/tf_op_layer_AddV2_5/AddV2_5"], "attr": {"T": {"type": "DT_FLOAT"}}}, {"name": "StatefulPartitionedCall/CTC_kerasModel4linerout/tf_op_layer_Mul_5/Mul_5", "op": "Mul", "input": ["StatefulPartitionedCall/CTC_kerasModel4linerout/tf_op_layer_Mul_5/Mul_5/y", "StatefulPartitionedCall/CTC_kerasModel4linerout/re_lu_10/Relu6"], "attr": {"_cloned": {"b": true}, "T": {"type": "DT_FLOAT"}, "_grappler_ArithmeticOptimizer_MinimizeBroadcasts": {"b": true}}}, {"name": "StatefulPartitionedCall/CTC_kerasModel4linerout/multiply_3/mul", "op": "Mul", "input": ["StatefulPartitionedCall/CTC_kerasModel4linerout/tf_op_layer_Mul_5/Mul_5", "StatefulPartitionedCall/CTC_kerasModel4linerout/expanded_conv_4/expand/BatchNorm/FusedBatchNormV3"], "attr": {"_grappler_ArithmeticOptimizer_MinimizeBroadcasts": {"b": true}, "T": {"type": "DT_FLOAT"}}}, {"name": "StatefulPartitionedCall/CTC_kerasModel4linerout/expanded_conv_4/depthwise/depthwise", "op": "FusedDepthwiseConv2dNative", "input": ["StatefulPartitionedCall/CTC_kerasModel4linerout/multiply_3/mul", "StatefulPartitionedCall/CTC_kerasModel4linerout/expanded_conv_4/depthwise/depthwise_weights", "StatefulPartitionedCall/CTC_kerasModel4linerout/expanded_conv_4/depthwise/depthwise_bn_offset"], "attr": {"dilations": {"list": {"i": ["1", "1", "1", "1"]}}, "data_format": {"s": "TkhXQw=="}, "num_args": {"i": "1"}, "T": {"type": "DT_FLOAT"}, "strides": {"list": {"i": ["1", "1", "1", "1"]}}, "padding": {"s": "U0FNRQ=="}, "explicit_paddings": {"list": {}}, "fused_ops": {"list": {"s": ["Qmlhc0FkZA=="]}}}}, {"name": "StatefulPartitionedCall/CTC_kerasModel4linerout/tf_op_layer_AddV2_6/AddV2_6", "op": "AddV2", "input": ["StatefulPartitionedCall/CTC_kerasModel4linerout/expanded_conv_4/depthwise/depthwise", "StatefulPartitionedCall/CTC_kerasModel4linerout/tf_op_layer_AddV2_6/AddV2_6/y"], "attr": {"_cloned": {"b": true}, "T": {"type": "DT_FLOAT"}}}, {"name": "StatefulPartitionedCall/CTC_kerasModel4linerout/re_lu_11/Relu6", "op": "Relu6", "input": ["StatefulPartitionedCall/CTC_kerasModel4linerout/tf_op_layer_AddV2_6/AddV2_6"], "attr": {"T": {"type": "DT_FLOAT"}}}, {"name": "StatefulPartitionedCall/CTC_kerasModel4linerout/tf_op_layer_Mul_6/Mul_6", "op": "Mul", "input": ["StatefulPartitionedCall/CTC_kerasModel4linerout/tf_op_layer_Mul_6/Mul_6/y", "StatefulPartitionedCall/CTC_kerasModel4linerout/re_lu_11/Relu6"], "attr": {"_grappler_ArithmeticOptimizer_MinimizeBroadcasts": {"b": true}, "_cloned": {"b": true}, "T": {"type": "DT_FLOAT"}}}, {"name": "StatefulPartitionedCall/CTC_kerasModel4linerout/multiply_4/mul", "op": "Mul", "input": ["StatefulPartitionedCall/CTC_kerasModel4linerout/tf_op_layer_Mul_6/Mul_6", "StatefulPartitionedCall/CTC_kerasModel4linerout/expanded_conv_4/depthwise/depthwise"], "attr": {"_grappler_ArithmeticOptimizer_MinimizeBroadcasts": {"b": true}, "T": {"type": "DT_FLOAT"}}}, {"name": "StatefulPartitionedCall/CTC_kerasModel4linerout/expanded_conv_4/squeeze_excite/AvgPool/Mean", "op": "Mean", "input": ["StatefulPartitionedCall/CTC_kerasModel4linerout/multiply_4/mul", "StatefulPartitionedCall/CTC_kerasModel4linerout/expanded_conv_4/squeeze_excite/AvgPool/Mean/reduction_indices"], "attr": {"keep_dims": {"b": false}, "T": {"type": "DT_FLOAT"}, "Tidx": {"type": "DT_INT32"}}}, {"name": "StatefulPartitionedCall/CTC_kerasModel4linerout/reshape_3/Shape", "op": "Shape", "input": ["StatefulPartitionedCall/CTC_kerasModel4linerout/expanded_conv_4/squeeze_excite/AvgPool/Mean"], "attr": {"T": {"type": "DT_FLOAT"}, "out_type": {"type": "DT_INT32"}}}, {"name": "StatefulPartitionedCall/CTC_kerasModel4linerout/reshape_3/strided_slice", "op": "StridedSlice", "input": ["StatefulPartitionedCall/CTC_kerasModel4linerout/reshape_3/Shape", "StatefulPartitionedCall/CTC_kerasModel4linerout/reshape_3/strided_slice/stack", "StatefulPartitionedCall/CTC_kerasModel4linerout/reshape_3/strided_slice/stack_1", "StatefulPartitionedCall/CTC_kerasModel4linerout/reshape_3/strided_slice/stack_2"], "attr": {"Index": {"type": "DT_INT32"}, "begin_mask": {"i": "0"}, "end_mask": {"i": "0"}, "new_axis_mask": {"i": "0"}, "T": {"type": "DT_INT32"}, "ellipsis_mask": {"i": "0"}, "shrink_axis_mask": {"i": "1"}}}, {"name": "StatefulPartitionedCall/CTC_kerasModel4linerout/reshape_3/Reshape/shape", "op": "Pack", "input": ["StatefulPartitionedCall/CTC_kerasModel4linerout/reshape_3/strided_slice", "StatefulPartitionedCall/CTC_kerasModel4linerout/reshape_3/Reshape/shape/1", "StatefulPartitionedCall/CTC_kerasModel4linerout/reshape_3/Reshape/shape/2", "StatefulPartitionedCall/CTC_kerasModel4linerout/reshape_3/Reshape/shape/3"], "attr": {"T": {"type": "DT_INT32"}, "N": {"i": "4"}, "axis": {"i": "0"}}}, {"name": "StatefulPartitionedCall/CTC_kerasModel4linerout/reshape_3/Reshape", "op": "Reshape", "input": ["StatefulPartitionedCall/CTC_kerasModel4linerout/expanded_conv_4/squeeze_excite/AvgPool/Mean", "StatefulPartitionedCall/CTC_kerasModel4linerout/reshape_3/Reshape/shape"], "attr": {"Tshape": {"type": "DT_INT32"}, "T": {"type": "DT_FLOAT"}}}, {"name": "StatefulPartitionedCall/CTC_kerasModel4linerout/expanded_conv_4/squeeze_excite/Relu/Relu", "op": "_FusedConv2D", "input": ["StatefulPartitionedCall/CTC_kerasModel4linerout/reshape_3/Reshape", "unknown_77", "unknown_78"], "device": "/device:CPU:0", "attr": {"epsilon": {"f": 0.0}, "data_format": {"s": "TkhXQw=="}, "explicit_paddings": {"list": {}}, "padding": {"s": "U0FNRQ=="}, "fused_ops": {"list": {"s": ["Qmlhc0FkZA==", "UmVsdQ=="]}}, "T": {"type": "DT_FLOAT"}, "strides": {"list": {"i": ["1", "1", "1", "1"]}}, "dilations": {"list": {"i": ["1", "1", "1", "1"]}}, "num_args": {"i": "1"}, "use_cudnn_on_gpu": {"b": true}}}, {"name": "StatefulPartitionedCall/CTC_kerasModel4linerout/expanded_conv_4/squeeze_excite/Conv_1/BiasAdd", "op": "_FusedConv2D", "input": ["StatefulPartitionedCall/CTC_kerasModel4linerout/expanded_conv_4/squeeze_excite/Relu/Relu", "unknown_79", "unknown_80"], "device": "/device:CPU:0", "attr": {"strides": {"list": {"i": ["1", "1", "1", "1"]}}, "explicit_paddings": {"list": {}}, "dilations": {"list": {"i": ["1", "1", "1", "1"]}}, "T": {"type": "DT_FLOAT"}, "epsilon": {"f": 0.0}, "data_format": {"s": "TkhXQw=="}, "num_args": {"i": "1"}, "use_cudnn_on_gpu": {"b": true}, "padding": {"s": "U0FNRQ=="}, "fused_ops": {"list": {"s": ["Qmlhc0FkZA=="]}}}}, {"name": "StatefulPartitionedCall/CTC_kerasModel4linerout/tf_op_layer_AddV2_7/AddV2_7", "op": "AddV2", "input": ["StatefulPartitionedCall/CTC_kerasModel4linerout/expanded_conv_4/squeeze_excite/Conv_1/BiasAdd", "StatefulPartitionedCall/CTC_kerasModel4linerout/tf_op_layer_AddV2_7/AddV2_7/y"], "attr": {"T": {"type": "DT_FLOAT"}, "_cloned": {"b": true}}}, {"name": "StatefulPartitionedCall/CTC_kerasModel4linerout/re_lu_12/Relu6", "op": "Relu6", "input": ["StatefulPartitionedCall/CTC_kerasModel4linerout/tf_op_layer_AddV2_7/AddV2_7"], "attr": {"T": {"type": "DT_FLOAT"}}}, {"name": "StatefulPartitionedCall/CTC_kerasModel4linerout/tf_op_layer_Mul_7/Mul_7", "op": "Mul", "input": ["StatefulPartitionedCall/CTC_kerasModel4linerout/tf_op_layer_Mul_7/Mul_7/y", "StatefulPartitionedCall/CTC_kerasModel4linerout/re_lu_12/Relu6"], "attr": {"T": {"type": "DT_FLOAT"}, "_grappler_ArithmeticOptimizer_MinimizeBroadcasts": {"b": true}, "_cloned": {"b": true}}}, {"name": "StatefulPartitionedCall/CTC_kerasModel4linerout/expanded_conv_4/squeeze_excite/Mul/mul", "op": "Mul", "input": ["StatefulPartitionedCall/CTC_kerasModel4linerout/tf_op_layer_Mul_7/Mul_7", "StatefulPartitionedCall/CTC_kerasModel4linerout/multiply_4/mul"], "attr": {"T": {"type": "DT_FLOAT"}, "_grappler_ArithmeticOptimizer_MinimizeBroadcasts": {"b": true}}}, {"name": "StatefulPartitionedCall/CTC_kerasModel4linerout/expanded_conv_4/project/BatchNorm/FusedBatchNormV3", "op": "_FusedConv2D", "input": ["StatefulPartitionedCall/CTC_kerasModel4linerout/expanded_conv_4/squeeze_excite/Mul/mul", "StatefulPartitionedCall/CTC_kerasModel4linerout/expanded_conv_4/project/Conv2D_weights", "StatefulPartitionedCall/CTC_kerasModel4linerout/expanded_conv_4/project/Conv2D_bn_offset"], "device": "/device:CPU:0", "attr": {"epsilon": {"f": 0.0}, "use_cudnn_on_gpu": {"b": true}, "fused_ops": {"list": {"s": ["Qmlhc0FkZA=="]}}, "data_format": {"s": "TkhXQw=="}, "num_args": {"i": "1"}, "dilations": {"list": {"i": ["1", "1", "1", "1"]}}, "T": {"type": "DT_FLOAT"}, "padding": {"s": "U0FNRQ=="}, "explicit_paddings": {"list": {}}, "strides": {"list": {"i": ["1", "1", "1", "1"]}}}}, {"name": "StatefulPartitionedCall/CTC_kerasModel4linerout/expanded_conv_4/Add/add", "op": "AddV2", "input": ["StatefulPartitionedCall/CTC_kerasModel4linerout/expanded_conv_3/project/BatchNorm/FusedBatchNormV3", "StatefulPartitionedCall/CTC_kerasModel4linerout/expanded_conv_4/project/BatchNorm/FusedBatchNormV3"], "attr": {"T": {"type": "DT_FLOAT"}}}, {"name": "StatefulPartitionedCall/CTC_kerasModel4linerout/expanded_conv_5/expand/BatchNorm/FusedBatchNormV3", "op": "_FusedConv2D", "input": ["StatefulPartitionedCall/CTC_kerasModel4linerout/expanded_conv_4/Add/add", "StatefulPartitionedCall/CTC_kerasModel4linerout/expanded_conv_5/expand/Conv2D_weights", "StatefulPartitionedCall/CTC_kerasModel4linerout/expanded_conv_5/expand/Conv2D_bn_offset"], "device": "/device:CPU:0", "attr": {"padding": {"s": "U0FNRQ=="}, "dilations": {"list": {"i": ["1", "1", "1", "1"]}}, "epsilon": {"f": 0.0}, "use_cudnn_on_gpu": {"b": true}, "T": {"type": "DT_FLOAT"}, "fused_ops": {"list": {"s": ["Qmlhc0FkZA=="]}}, "strides": {"list": {"i": ["1", "1", "1", "1"]}}, "explicit_paddings": {"list": {}}, "data_format": {"s": "TkhXQw=="}, "num_args": {"i": "1"}}}, {"name": "StatefulPartitionedCall/CTC_kerasModel4linerout/tf_op_layer_AddV2_8/AddV2_8", "op": "AddV2", "input": ["StatefulPartitionedCall/CTC_kerasModel4linerout/expanded_conv_5/expand/BatchNorm/FusedBatchNormV3", "StatefulPartitionedCall/CTC_kerasModel4linerout/tf_op_layer_AddV2_8/AddV2_8/y"], "attr": {"_cloned": {"b": true}, "T": {"type": "DT_FLOAT"}}}, {"name": "StatefulPartitionedCall/CTC_kerasModel4linerout/re_lu_13/Relu6", "op": "Relu6", "input": ["StatefulPartitionedCall/CTC_kerasModel4linerout/tf_op_layer_AddV2_8/AddV2_8"], "attr": {"T": {"type": "DT_FLOAT"}}}, {"name": "StatefulPartitionedCall/CTC_kerasModel4linerout/tf_op_layer_Mul_8/Mul_8", "op": "Mul", "input": ["StatefulPartitionedCall/CTC_kerasModel4linerout/tf_op_layer_Mul_8/Mul_8/y", "StatefulPartitionedCall/CTC_kerasModel4linerout/re_lu_13/Relu6"], "attr": {"_grappler_ArithmeticOptimizer_MinimizeBroadcasts": {"b": true}, "T": {"type": "DT_FLOAT"}, "_cloned": {"b": true}}}, {"name": "StatefulPartitionedCall/CTC_kerasModel4linerout/multiply_5/mul", "op": "Mul", "input": ["StatefulPartitionedCall/CTC_kerasModel4linerout/tf_op_layer_Mul_8/Mul_8", "StatefulPartitionedCall/CTC_kerasModel4linerout/expanded_conv_5/expand/BatchNorm/FusedBatchNormV3"], "attr": {"_grappler_ArithmeticOptimizer_MinimizeBroadcasts": {"b": true}, "T": {"type": "DT_FLOAT"}}}, {"name": "StatefulPartitionedCall/CTC_kerasModel4linerout/expanded_conv_5/depthwise/depthwise", "op": "FusedDepthwiseConv2dNative", "input": ["StatefulPartitionedCall/CTC_kerasModel4linerout/multiply_5/mul", "StatefulPartitionedCall/CTC_kerasModel4linerout/expanded_conv_5/depthwise/depthwise_weights", "StatefulPartitionedCall/CTC_kerasModel4linerout/expanded_conv_5/depthwise/depthwise_bn_offset"], "attr": {"data_format": {"s": "TkhXQw=="}, "explicit_paddings": {"list": {}}, "padding": {"s": "U0FNRQ=="}, "strides": {"list": {"i": ["1", "1", "1", "1"]}}, "dilations": {"list": {"i": ["1", "1", "1", "1"]}}, "T": {"type": "DT_FLOAT"}, "num_args": {"i": "1"}, "fused_ops": {"list": {"s": ["Qmlhc0FkZA=="]}}}}, {"name": "StatefulPartitionedCall/CTC_kerasModel4linerout/tf_op_layer_AddV2_9/AddV2_9", "op": "AddV2", "input": ["StatefulPartitionedCall/CTC_kerasModel4linerout/expanded_conv_5/depthwise/depthwise", "StatefulPartitionedCall/CTC_kerasModel4linerout/tf_op_layer_AddV2_9/AddV2_9/y"], "attr": {"_cloned": {"b": true}, "T": {"type": "DT_FLOAT"}}}, {"name": "StatefulPartitionedCall/CTC_kerasModel4linerout/re_lu_14/Relu6", "op": "Relu6", "input": ["StatefulPartitionedCall/CTC_kerasModel4linerout/tf_op_layer_AddV2_9/AddV2_9"], "attr": {"T": {"type": "DT_FLOAT"}}}, {"name": "StatefulPartitionedCall/CTC_kerasModel4linerout/tf_op_layer_Mul_9/Mul_9", "op": "Mul", "input": ["StatefulPartitionedCall/CTC_kerasModel4linerout/tf_op_layer_Mul_9/Mul_9/y", "StatefulPartitionedCall/CTC_kerasModel4linerout/re_lu_14/Relu6"], "attr": {"_cloned": {"b": true}, "T": {"type": "DT_FLOAT"}, "_grappler_ArithmeticOptimizer_MinimizeBroadcasts": {"b": true}}}, {"name": "StatefulPartitionedCall/CTC_kerasModel4linerout/multiply_6/mul", "op": "Mul", "input": ["StatefulPartitionedCall/CTC_kerasModel4linerout/tf_op_layer_Mul_9/Mul_9", "StatefulPartitionedCall/CTC_kerasModel4linerout/expanded_conv_5/depthwise/depthwise"], "attr": {"_grappler_ArithmeticOptimizer_MinimizeBroadcasts": {"b": true}, "T": {"type": "DT_FLOAT"}}}, {"name": "StatefulPartitionedCall/CTC_kerasModel4linerout/expanded_conv_5/squeeze_excite/AvgPool/Mean", "op": "Mean", "input": ["StatefulPartitionedCall/CTC_kerasModel4linerout/multiply_6/mul", "StatefulPartitionedCall/CTC_kerasModel4linerout/expanded_conv_5/squeeze_excite/AvgPool/Mean/reduction_indices"], "attr": {"keep_dims": {"b": false}, "T": {"type": "DT_FLOAT"}, "Tidx": {"type": "DT_INT32"}}}, {"name": "StatefulPartitionedCall/CTC_kerasModel4linerout/reshape_4/Shape", "op": "Shape", "input": ["StatefulPartitionedCall/CTC_kerasModel4linerout/expanded_conv_5/squeeze_excite/AvgPool/Mean"], "attr": {"out_type": {"type": "DT_INT32"}, "T": {"type": "DT_FLOAT"}}}, {"name": "StatefulPartitionedCall/CTC_kerasModel4linerout/reshape_4/strided_slice", "op": "StridedSlice", "input": ["StatefulPartitionedCall/CTC_kerasModel4linerout/reshape_4/Shape", "StatefulPartitionedCall/CTC_kerasModel4linerout/reshape_4/strided_slice/stack", "StatefulPartitionedCall/CTC_kerasModel4linerout/reshape_4/strided_slice/stack_1", "StatefulPartitionedCall/CTC_kerasModel4linerout/reshape_4/strided_slice/stack_2"], "attr": {"ellipsis_mask": {"i": "0"}, "end_mask": {"i": "0"}, "Index": {"type": "DT_INT32"}, "new_axis_mask": {"i": "0"}, "T": {"type": "DT_INT32"}, "begin_mask": {"i": "0"}, "shrink_axis_mask": {"i": "1"}}}, {"name": "StatefulPartitionedCall/CTC_kerasModel4linerout/reshape_4/Reshape/shape", "op": "Pack", "input": ["StatefulPartitionedCall/CTC_kerasModel4linerout/reshape_4/strided_slice", "StatefulPartitionedCall/CTC_kerasModel4linerout/reshape_4/Reshape/shape/1", "StatefulPartitionedCall/CTC_kerasModel4linerout/reshape_4/Reshape/shape/2", "StatefulPartitionedCall/CTC_kerasModel4linerout/reshape_4/Reshape/shape/3"], "attr": {"N": {"i": "4"}, "axis": {"i": "0"}, "T": {"type": "DT_INT32"}}}, {"name": "StatefulPartitionedCall/CTC_kerasModel4linerout/reshape_4/Reshape", "op": "Reshape", "input": ["StatefulPartitionedCall/CTC_kerasModel4linerout/expanded_conv_5/squeeze_excite/AvgPool/Mean", "StatefulPartitionedCall/CTC_kerasModel4linerout/reshape_4/Reshape/shape"], "attr": {"T": {"type": "DT_FLOAT"}, "Tshape": {"type": "DT_INT32"}}}, {"name": "StatefulPartitionedCall/CTC_kerasModel4linerout/expanded_conv_5/squeeze_excite/Relu/Relu", "op": "_FusedConv2D", "input": ["StatefulPartitionedCall/CTC_kerasModel4linerout/reshape_4/Reshape", "unknown_96", "unknown_97"], "device": "/device:CPU:0", "attr": {"padding": {"s": "U0FNRQ=="}, "data_format": {"s": "TkhXQw=="}, "T": {"type": "DT_FLOAT"}, "use_cudnn_on_gpu": {"b": true}, "num_args": {"i": "1"}, "fused_ops": {"list": {"s": ["Qmlhc0FkZA==", "UmVsdQ=="]}}, "strides": {"list": {"i": ["1", "1", "1", "1"]}}, "epsilon": {"f": 0.0}, "dilations": {"list": {"i": ["1", "1", "1", "1"]}}, "explicit_paddings": {"list": {}}}}, {"name": "StatefulPartitionedCall/CTC_kerasModel4linerout/expanded_conv_5/squeeze_excite/Conv_1/BiasAdd", "op": "_FusedConv2D", "input": ["StatefulPartitionedCall/CTC_kerasModel4linerout/expanded_conv_5/squeeze_excite/Relu/Relu", "unknown_98", "unknown_99"], "device": "/device:CPU:0", "attr": {"data_format": {"s": "TkhXQw=="}, "strides": {"list": {"i": ["1", "1", "1", "1"]}}, "dilations": {"list": {"i": ["1", "1", "1", "1"]}}, "padding": {"s": "U0FNRQ=="}, "T": {"type": "DT_FLOAT"}, "fused_ops": {"list": {"s": ["Qmlhc0FkZA=="]}}, "explicit_paddings": {"list": {}}, "num_args": {"i": "1"}, "use_cudnn_on_gpu": {"b": true}, "epsilon": {"f": 0.0}}}, {"name": "StatefulPartitionedCall/CTC_kerasModel4linerout/tf_op_layer_AddV2_10/AddV2_10", "op": "AddV2", "input": ["StatefulPartitionedCall/CTC_kerasModel4linerout/expanded_conv_5/squeeze_excite/Conv_1/BiasAdd", "StatefulPartitionedCall/CTC_kerasModel4linerout/tf_op_layer_AddV2_10/AddV2_10/y"], "attr": {"_cloned": {"b": true}, "T": {"type": "DT_FLOAT"}}}, {"name": "StatefulPartitionedCall/CTC_kerasModel4linerout/re_lu_15/Relu6", "op": "Relu6", "input": ["StatefulPartitionedCall/CTC_kerasModel4linerout/tf_op_layer_AddV2_10/AddV2_10"], "attr": {"T": {"type": "DT_FLOAT"}}}, {"name": "StatefulPartitionedCall/CTC_kerasModel4linerout/tf_op_layer_Mul_10/Mul_10", "op": "Mul", "input": ["StatefulPartitionedCall/CTC_kerasModel4linerout/tf_op_layer_Mul_10/Mul_10/y", "StatefulPartitionedCall/CTC_kerasModel4linerout/re_lu_15/Relu6"], "attr": {"_grappler_ArithmeticOptimizer_MinimizeBroadcasts": {"b": true}, "_cloned": {"b": true}, "T": {"type": "DT_FLOAT"}}}, {"name": "StatefulPartitionedCall/CTC_kerasModel4linerout/expanded_conv_5/squeeze_excite/Mul/mul", "op": "Mul", "input": ["StatefulPartitionedCall/CTC_kerasModel4linerout/tf_op_layer_Mul_10/Mul_10", "StatefulPartitionedCall/CTC_kerasModel4linerout/multiply_6/mul"], "attr": {"T": {"type": "DT_FLOAT"}, "_grappler_ArithmeticOptimizer_MinimizeBroadcasts": {"b": true}}}, {"name": "StatefulPartitionedCall/CTC_kerasModel4linerout/expanded_conv_5/project/BatchNorm/FusedBatchNormV3", "op": "_FusedConv2D", "input": ["StatefulPartitionedCall/CTC_kerasModel4linerout/expanded_conv_5/squeeze_excite/Mul/mul", "StatefulPartitionedCall/CTC_kerasModel4linerout/expanded_conv_5/project/Conv2D_weights", "StatefulPartitionedCall/CTC_kerasModel4linerout/expanded_conv_5/project/Conv2D_bn_offset"], "device": "/device:CPU:0", "attr": {"epsilon": {"f": 0.0}, "data_format": {"s": "TkhXQw=="}, "use_cudnn_on_gpu": {"b": true}, "explicit_paddings": {"list": {}}, "num_args": {"i": "1"}, "dilations": {"list": {"i": ["1", "1", "1", "1"]}}, "T": {"type": "DT_FLOAT"}, "padding": {"s": "U0FNRQ=="}, "fused_ops": {"list": {"s": ["Qmlhc0FkZA=="]}}, "strides": {"list": {"i": ["1", "1", "1", "1"]}}}}, {"name": "StatefulPartitionedCall/CTC_kerasModel4linerout/expanded_conv_5/Add/add", "op": "AddV2", "input": ["StatefulPartitionedCall/CTC_kerasModel4linerout/expanded_conv_4/Add/add", "StatefulPartitionedCall/CTC_kerasModel4linerout/expanded_conv_5/project/BatchNorm/FusedBatchNormV3"], "attr": {"T": {"type": "DT_FLOAT"}}}, {"name": "StatefulPartitionedCall/CTC_kerasModel4linerout/expanded_conv_6/expand/BatchNorm/FusedBatchNormV3", "op": "_FusedConv2D", "input": ["StatefulPartitionedCall/CTC_kerasModel4linerout/expanded_conv_5/Add/add", "StatefulPartitionedCall/CTC_kerasModel4linerout/expanded_conv_6/expand/Conv2D_weights", "StatefulPartitionedCall/CTC_kerasModel4linerout/expanded_conv_6/expand/Conv2D_bn_offset"], "device": "/device:CPU:0", "attr": {"explicit_paddings": {"list": {}}, "fused_ops": {"list": {"s": ["Qmlhc0FkZA=="]}}, "T": {"type": "DT_FLOAT"}, "data_format": {"s": "TkhXQw=="}, "dilations": {"list": {"i": ["1", "1", "1", "1"]}}, "num_args": {"i": "1"}, "strides": {"list": {"i": ["1", "1", "1", "1"]}}, "use_cudnn_on_gpu": {"b": true}, "padding": {"s": "U0FNRQ=="}, "epsilon": {"f": 0.0}}}, {"name": "StatefulPartitionedCall/CTC_kerasModel4linerout/tf_op_layer_AddV2_11/AddV2_11", "op": "AddV2", "input": ["StatefulPartitionedCall/CTC_kerasModel4linerout/expanded_conv_6/expand/BatchNorm/FusedBatchNormV3", "StatefulPartitionedCall/CTC_kerasModel4linerout/tf_op_layer_AddV2_11/AddV2_11/y"], "attr": {"_cloned": {"b": true}, "T": {"type": "DT_FLOAT"}}}, {"name": "StatefulPartitionedCall/CTC_kerasModel4linerout/re_lu_16/Relu6", "op": "Relu6", "input": ["StatefulPartitionedCall/CTC_kerasModel4linerout/tf_op_layer_AddV2_11/AddV2_11"], "attr": {"T": {"type": "DT_FLOAT"}}}, {"name": "StatefulPartitionedCall/CTC_kerasModel4linerout/tf_op_layer_Mul_11/Mul_11", "op": "Mul", "input": ["StatefulPartitionedCall/CTC_kerasModel4linerout/tf_op_layer_Mul_11/Mul_11/y", "StatefulPartitionedCall/CTC_kerasModel4linerout/re_lu_16/Relu6"], "attr": {"_cloned": {"b": true}, "_grappler_ArithmeticOptimizer_MinimizeBroadcasts": {"b": true}, "T": {"type": "DT_FLOAT"}}}, {"name": "StatefulPartitionedCall/CTC_kerasModel4linerout/multiply_7/mul", "op": "Mul", "input": ["StatefulPartitionedCall/CTC_kerasModel4linerout/tf_op_layer_Mul_11/Mul_11", "StatefulPartitionedCall/CTC_kerasModel4linerout/expanded_conv_6/expand/BatchNorm/FusedBatchNormV3"], "attr": {"T": {"type": "DT_FLOAT"}, "_grappler_ArithmeticOptimizer_MinimizeBroadcasts": {"b": true}}}, {"name": "StatefulPartitionedCall/CTC_kerasModel4linerout/expanded_conv_6/depthwise/depthwise", "op": "FusedDepthwiseConv2dNative", "input": ["StatefulPartitionedCall/CTC_kerasModel4linerout/multiply_7/mul", "StatefulPartitionedCall/CTC_kerasModel4linerout/expanded_conv_6/depthwise/depthwise_weights", "StatefulPartitionedCall/CTC_kerasModel4linerout/expanded_conv_6/depthwise/depthwise_bn_offset"], "attr": {"explicit_paddings": {"list": {}}, "fused_ops": {"list": {"s": ["Qmlhc0FkZA=="]}}, "data_format": {"s": "TkhXQw=="}, "num_args": {"i": "1"}, "padding": {"s": "U0FNRQ=="}, "dilations": {"list": {"i": ["1", "1", "1", "1"]}}, "T": {"type": "DT_FLOAT"}, "strides": {"list": {"i": ["1", "1", "1", "1"]}}}}, {"name": "StatefulPartitionedCall/CTC_kerasModel4linerout/tf_op_layer_AddV2_12/AddV2_12", "op": "AddV2", "input": ["StatefulPartitionedCall/CTC_kerasModel4linerout/expanded_conv_6/depthwise/depthwise", "StatefulPartitionedCall/CTC_kerasModel4linerout/tf_op_layer_AddV2_12/AddV2_12/y"], "attr": {"_cloned": {"b": true}, "T": {"type": "DT_FLOAT"}}}, {"name": "StatefulPartitionedCall/CTC_kerasModel4linerout/re_lu_17/Relu6", "op": "Relu6", "input": ["StatefulPartitionedCall/CTC_kerasModel4linerout/tf_op_layer_AddV2_12/AddV2_12"], "attr": {"T": {"type": "DT_FLOAT"}}}, {"name": "StatefulPartitionedCall/CTC_kerasModel4linerout/tf_op_layer_Mul_12/Mul_12", "op": "Mul", "input": ["StatefulPartitionedCall/CTC_kerasModel4linerout/tf_op_layer_Mul_12/Mul_12/y", "StatefulPartitionedCall/CTC_kerasModel4linerout/re_lu_17/Relu6"], "attr": {"T": {"type": "DT_FLOAT"}, "_grappler_ArithmeticOptimizer_MinimizeBroadcasts": {"b": true}, "_cloned": {"b": true}}}, {"name": "StatefulPartitionedCall/CTC_kerasModel4linerout/multiply_8/mul", "op": "Mul", "input": ["StatefulPartitionedCall/CTC_kerasModel4linerout/tf_op_layer_Mul_12/Mul_12", "StatefulPartitionedCall/CTC_kerasModel4linerout/expanded_conv_6/depthwise/depthwise"], "attr": {"_grappler_ArithmeticOptimizer_MinimizeBroadcasts": {"b": true}, "T": {"type": "DT_FLOAT"}}}, {"name": "StatefulPartitionedCall/CTC_kerasModel4linerout/expanded_conv_6/squeeze_excite/AvgPool/Mean", "op": "Mean", "input": ["StatefulPartitionedCall/CTC_kerasModel4linerout/multiply_8/mul", "StatefulPartitionedCall/CTC_kerasModel4linerout/expanded_conv_6/squeeze_excite/AvgPool/Mean/reduction_indices"], "attr": {"T": {"type": "DT_FLOAT"}, "Tidx": {"type": "DT_INT32"}, "keep_dims": {"b": false}}}, {"name": "StatefulPartitionedCall/CTC_kerasModel4linerout/reshape_5/Shape", "op": "Shape", "input": ["StatefulPartitionedCall/CTC_kerasModel4linerout/expanded_conv_6/squeeze_excite/AvgPool/Mean"], "attr": {"out_type": {"type": "DT_INT32"}, "T": {"type": "DT_FLOAT"}}}, {"name": "StatefulPartitionedCall/CTC_kerasModel4linerout/reshape_5/strided_slice", "op": "StridedSlice", "input": ["StatefulPartitionedCall/CTC_kerasModel4linerout/reshape_5/Shape", "StatefulPartitionedCall/CTC_kerasModel4linerout/reshape_5/strided_slice/stack", "StatefulPartitionedCall/CTC_kerasModel4linerout/reshape_5/strided_slice/stack_1", "StatefulPartitionedCall/CTC_kerasModel4linerout/reshape_5/strided_slice/stack_2"], "attr": {"ellipsis_mask": {"i": "0"}, "shrink_axis_mask": {"i": "1"}, "end_mask": {"i": "0"}, "Index": {"type": "DT_INT32"}, "begin_mask": {"i": "0"}, "new_axis_mask": {"i": "0"}, "T": {"type": "DT_INT32"}}}, {"name": "StatefulPartitionedCall/CTC_kerasModel4linerout/reshape_5/Reshape/shape", "op": "Pack", "input": ["StatefulPartitionedCall/CTC_kerasModel4linerout/reshape_5/strided_slice", "StatefulPartitionedCall/CTC_kerasModel4linerout/reshape_5/Reshape/shape/1", "StatefulPartitionedCall/CTC_kerasModel4linerout/reshape_5/Reshape/shape/2", "StatefulPartitionedCall/CTC_kerasModel4linerout/reshape_5/Reshape/shape/3"], "attr": {"T": {"type": "DT_INT32"}, "axis": {"i": "0"}, "N": {"i": "4"}}}, {"name": "StatefulPartitionedCall/CTC_kerasModel4linerout/reshape_5/Reshape", "op": "Reshape", "input": ["StatefulPartitionedCall/CTC_kerasModel4linerout/expanded_conv_6/squeeze_excite/AvgPool/Mean", "StatefulPartitionedCall/CTC_kerasModel4linerout/reshape_5/Reshape/shape"], "attr": {"T": {"type": "DT_FLOAT"}, "Tshape": {"type": "DT_INT32"}}}, {"name": "StatefulPartitionedCall/CTC_kerasModel4linerout/expanded_conv_6/squeeze_excite/Relu/Relu", "op": "_FusedConv2D", "input": ["StatefulPartitionedCall/CTC_kerasModel4linerout/reshape_5/Reshape", "unknown_115", "unknown_116"], "device": "/device:CPU:0", "attr": {"strides": {"list": {"i": ["1", "1", "1", "1"]}}, "padding": {"s": "U0FNRQ=="}, "fused_ops": {"list": {"s": ["Qmlhc0FkZA==", "UmVsdQ=="]}}, "data_format": {"s": "TkhXQw=="}, "epsilon": {"f": 0.0}, "dilations": {"list": {"i": ["1", "1", "1", "1"]}}, "use_cudnn_on_gpu": {"b": true}, "explicit_paddings": {"list": {}}, "num_args": {"i": "1"}, "T": {"type": "DT_FLOAT"}}}, {"name": "StatefulPartitionedCall/CTC_kerasModel4linerout/expanded_conv_6/squeeze_excite/Conv_1/BiasAdd", "op": "_FusedConv2D", "input": ["StatefulPartitionedCall/CTC_kerasModel4linerout/expanded_conv_6/squeeze_excite/Relu/Relu", "unknown_117", "unknown_118"], "device": "/device:CPU:0", "attr": {"dilations": {"list": {"i": ["1", "1", "1", "1"]}}, "data_format": {"s": "TkhXQw=="}, "padding": {"s": "U0FNRQ=="}, "fused_ops": {"list": {"s": ["Qmlhc0FkZA=="]}}, "strides": {"list": {"i": ["1", "1", "1", "1"]}}, "epsilon": {"f": 0.0}, "explicit_paddings": {"list": {}}, "num_args": {"i": "1"}, "use_cudnn_on_gpu": {"b": true}, "T": {"type": "DT_FLOAT"}}}, {"name": "StatefulPartitionedCall/CTC_kerasModel4linerout/tf_op_layer_AddV2_13/AddV2_13", "op": "AddV2", "input": ["StatefulPartitionedCall/CTC_kerasModel4linerout/expanded_conv_6/squeeze_excite/Conv_1/BiasAdd", "StatefulPartitionedCall/CTC_kerasModel4linerout/tf_op_layer_AddV2_13/AddV2_13/y"], "attr": {"_cloned": {"b": true}, "T": {"type": "DT_FLOAT"}}}, {"name": "StatefulPartitionedCall/CTC_kerasModel4linerout/re_lu_18/Relu6", "op": "Relu6", "input": ["StatefulPartitionedCall/CTC_kerasModel4linerout/tf_op_layer_AddV2_13/AddV2_13"], "attr": {"T": {"type": "DT_FLOAT"}}}, {"name": "StatefulPartitionedCall/CTC_kerasModel4linerout/tf_op_layer_Mul_13/Mul_13", "op": "Mul", "input": ["StatefulPartitionedCall/CTC_kerasModel4linerout/tf_op_layer_Mul_13/Mul_13/y", "StatefulPartitionedCall/CTC_kerasModel4linerout/re_lu_18/Relu6"], "attr": {"_cloned": {"b": true}, "T": {"type": "DT_FLOAT"}, "_grappler_ArithmeticOptimizer_MinimizeBroadcasts": {"b": true}}}, {"name": "StatefulPartitionedCall/CTC_kerasModel4linerout/expanded_conv_6/squeeze_excite/Mul/mul", "op": "Mul", "input": ["StatefulPartitionedCall/CTC_kerasModel4linerout/tf_op_layer_Mul_13/Mul_13", "StatefulPartitionedCall/CTC_kerasModel4linerout/multiply_8/mul"], "attr": {"_grappler_ArithmeticOptimizer_MinimizeBroadcasts": {"b": true}, "T": {"type": "DT_FLOAT"}}}, {"name": "StatefulPartitionedCall/CTC_kerasModel4linerout/expanded_conv_6/project/BatchNorm/FusedBatchNormV3", "op": "_FusedConv2D", "input": ["StatefulPartitionedCall/CTC_kerasModel4linerout/expanded_conv_6/squeeze_excite/Mul/mul", "StatefulPartitionedCall/CTC_kerasModel4linerout/expanded_conv_6/project/Conv2D_weights", "StatefulPartitionedCall/CTC_kerasModel4linerout/expanded_conv_6/project/Conv2D_bn_offset"], "device": "/device:CPU:0", "attr": {"epsilon": {"f": 0.0}, "use_cudnn_on_gpu": {"b": true}, "num_args": {"i": "1"}, "padding": {"s": "U0FNRQ=="}, "fused_ops": {"list": {"s": ["Qmlhc0FkZA=="]}}, "strides": {"list": {"i": ["1", "1", "1", "1"]}}, "data_format": {"s": "TkhXQw=="}, "T": {"type": "DT_FLOAT"}, "explicit_paddings": {"list": {}}, "dilations": {"list": {"i": ["1", "1", "1", "1"]}}}}, {"name": "StatefulPartitionedCall/CTC_kerasModel4linerout/expanded_conv_7/expand/BatchNorm/FusedBatchNormV3", "op": "_FusedConv2D", "input": ["StatefulPartitionedCall/CTC_kerasModel4linerout/expanded_conv_6/project/BatchNorm/FusedBatchNormV3", "StatefulPartitionedCall/CTC_kerasModel4linerout/expanded_conv_7/expand/Conv2D_weights", "StatefulPartitionedCall/CTC_kerasModel4linerout/expanded_conv_7/expand/Conv2D_bn_offset"], "device": "/device:CPU:0", "attr": {"strides": {"list": {"i": ["1", "1", "1", "1"]}}, "data_format": {"s": "TkhXQw=="}, "num_args": {"i": "1"}, "fused_ops": {"list": {"s": ["Qmlhc0FkZA=="]}}, "use_cudnn_on_gpu": {"b": true}, "dilations": {"list": {"i": ["1", "1", "1", "1"]}}, "padding": {"s": "U0FNRQ=="}, "epsilon": {"f": 0.0}, "explicit_paddings": {"list": {}}, "T": {"type": "DT_FLOAT"}}}, {"name": "StatefulPartitionedCall/CTC_kerasModel4linerout/tf_op_layer_AddV2_14/AddV2_14", "op": "AddV2", "input": ["StatefulPartitionedCall/CTC_kerasModel4linerout/expanded_conv_7/expand/BatchNorm/FusedBatchNormV3", "StatefulPartitionedCall/CTC_kerasModel4linerout/tf_op_layer_AddV2_14/AddV2_14/y"], "attr": {"_cloned": {"b": true}, "T": {"type": "DT_FLOAT"}}}, {"name": "StatefulPartitionedCall/CTC_kerasModel4linerout/re_lu_19/Relu6", "op": "Relu6", "input": ["StatefulPartitionedCall/CTC_kerasModel4linerout/tf_op_layer_AddV2_14/AddV2_14"], "attr": {"T": {"type": "DT_FLOAT"}}}, {"name": "StatefulPartitionedCall/CTC_kerasModel4linerout/tf_op_layer_Mul_14/Mul_14", "op": "Mul", "input": ["StatefulPartitionedCall/CTC_kerasModel4linerout/tf_op_layer_Mul_14/Mul_14/y", "StatefulPartitionedCall/CTC_kerasModel4linerout/re_lu_19/Relu6"], "attr": {"T": {"type": "DT_FLOAT"}, "_grappler_ArithmeticOptimizer_MinimizeBroadcasts": {"b": true}, "_cloned": {"b": true}}}, {"name": "StatefulPartitionedCall/CTC_kerasModel4linerout/multiply_9/mul", "op": "Mul", "input": ["StatefulPartitionedCall/CTC_kerasModel4linerout/tf_op_layer_Mul_14/Mul_14", "StatefulPartitionedCall/CTC_kerasModel4linerout/expanded_conv_7/expand/BatchNorm/FusedBatchNormV3"], "attr": {"_grappler_ArithmeticOptimizer_MinimizeBroadcasts": {"b": true}, "T": {"type": "DT_FLOAT"}}}, {"name": "StatefulPartitionedCall/CTC_kerasModel4linerout/expanded_conv_7/depthwise/depthwise", "op": "FusedDepthwiseConv2dNative", "input": ["StatefulPartitionedCall/CTC_kerasModel4linerout/multiply_9/mul", "StatefulPartitionedCall/CTC_kerasModel4linerout/expanded_conv_7/depthwise/depthwise_weights", "StatefulPartitionedCall/CTC_kerasModel4linerout/expanded_conv_7/depthwise/depthwise_bn_offset"], "attr": {"padding": {"s": "U0FNRQ=="}, "strides": {"list": {"i": ["1", "1", "1", "1"]}}, "num_args": {"i": "1"}, "fused_ops": {"list": {"s": ["Qmlhc0FkZA=="]}}, "explicit_paddings": {"list": {}}, "data_format": {"s": "TkhXQw=="}, "dilations": {"list": {"i": ["1", "1", "1", "1"]}}, "T": {"type": "DT_FLOAT"}}}, {"name": "StatefulPartitionedCall/CTC_kerasModel4linerout/tf_op_layer_AddV2_15/AddV2_15", "op": "AddV2", "input": ["StatefulPartitionedCall/CTC_kerasModel4linerout/expanded_conv_7/depthwise/depthwise", "StatefulPartitionedCall/CTC_kerasModel4linerout/tf_op_layer_AddV2_15/AddV2_15/y"], "attr": {"T": {"type": "DT_FLOAT"}, "_cloned": {"b": true}}}, {"name": "StatefulPartitionedCall/CTC_kerasModel4linerout/re_lu_20/Relu6", "op": "Relu6", "input": ["StatefulPartitionedCall/CTC_kerasModel4linerout/tf_op_layer_AddV2_15/AddV2_15"], "attr": {"T": {"type": "DT_FLOAT"}}}, {"name": "StatefulPartitionedCall/CTC_kerasModel4linerout/tf_op_layer_Mul_15/Mul_15", "op": "Mul", "input": ["StatefulPartitionedCall/CTC_kerasModel4linerout/tf_op_layer_Mul_15/Mul_15/y", "StatefulPartitionedCall/CTC_kerasModel4linerout/re_lu_20/Relu6"], "attr": {"T": {"type": "DT_FLOAT"}, "_grappler_ArithmeticOptimizer_MinimizeBroadcasts": {"b": true}, "_cloned": {"b": true}}}, {"name": "StatefulPartitionedCall/CTC_kerasModel4linerout/multiply_10/mul", "op": "Mul", "input": ["StatefulPartitionedCall/CTC_kerasModel4linerout/tf_op_layer_Mul_15/Mul_15", "StatefulPartitionedCall/CTC_kerasModel4linerout/expanded_conv_7/depthwise/depthwise"], "attr": {"_grappler_ArithmeticOptimizer_MinimizeBroadcasts": {"b": true}, "T": {"type": "DT_FLOAT"}}}, {"name": "StatefulPartitionedCall/CTC_kerasModel4linerout/expanded_conv_7/squeeze_excite/AvgPool/Mean", "op": "Mean", "input": ["StatefulPartitionedCall/CTC_kerasModel4linerout/multiply_10/mul", "StatefulPartitionedCall/CTC_kerasModel4linerout/expanded_conv_7/squeeze_excite/AvgPool/Mean/reduction_indices"], "attr": {"Tidx": {"type": "DT_INT32"}, "keep_dims": {"b": false}, "T": {"type": "DT_FLOAT"}}}, {"name": "StatefulPartitionedCall/CTC_kerasModel4linerout/reshape_6/Shape", "op": "Shape", "input": ["StatefulPartitionedCall/CTC_kerasModel4linerout/expanded_conv_7/squeeze_excite/AvgPool/Mean"], "attr": {"out_type": {"type": "DT_INT32"}, "T": {"type": "DT_FLOAT"}}}, {"name": "StatefulPartitionedCall/CTC_kerasModel4linerout/reshape_6/strided_slice", "op": "StridedSlice", "input": ["StatefulPartitionedCall/CTC_kerasModel4linerout/reshape_6/Shape", "StatefulPartitionedCall/CTC_kerasModel4linerout/reshape_6/strided_slice/stack", "StatefulPartitionedCall/CTC_kerasModel4linerout/reshape_6/strided_slice/stack_1", "StatefulPartitionedCall/CTC_kerasModel4linerout/reshape_6/strided_slice/stack_2"], "attr": {"new_axis_mask": {"i": "0"}, "T": {"type": "DT_INT32"}, "Index": {"type": "DT_INT32"}, "ellipsis_mask": {"i": "0"}, "shrink_axis_mask": {"i": "1"}, "begin_mask": {"i": "0"}, "end_mask": {"i": "0"}}}, {"name": "StatefulPartitionedCall/CTC_kerasModel4linerout/reshape_6/Reshape/shape", "op": "Pack", "input": ["StatefulPartitionedCall/CTC_kerasModel4linerout/reshape_6/strided_slice", "StatefulPartitionedCall/CTC_kerasModel4linerout/reshape_6/Reshape/shape/1", "StatefulPartitionedCall/CTC_kerasModel4linerout/reshape_6/Reshape/shape/2", "StatefulPartitionedCall/CTC_kerasModel4linerout/reshape_6/Reshape/shape/3"], "attr": {"axis": {"i": "0"}, "T": {"type": "DT_INT32"}, "N": {"i": "4"}}}, {"name": "StatefulPartitionedCall/CTC_kerasModel4linerout/reshape_6/Reshape", "op": "Reshape", "input": ["StatefulPartitionedCall/CTC_kerasModel4linerout/expanded_conv_7/squeeze_excite/AvgPool/Mean", "StatefulPartitionedCall/CTC_kerasModel4linerout/reshape_6/Reshape/shape"], "attr": {"T": {"type": "DT_FLOAT"}, "Tshape": {"type": "DT_INT32"}}}, {"name": "StatefulPartitionedCall/CTC_kerasModel4linerout/expanded_conv_7/squeeze_excite/Relu/Relu", "op": "_FusedConv2D", "input": ["StatefulPartitionedCall/CTC_kerasModel4linerout/reshape_6/Reshape", "unknown_134", "unknown_135"], "device": "/device:CPU:0", "attr": {"strides": {"list": {"i": ["1", "1", "1", "1"]}}, "data_format": {"s": "TkhXQw=="}, "epsilon": {"f": 0.0}, "padding": {"s": "U0FNRQ=="}, "T": {"type": "DT_FLOAT"}, "explicit_paddings": {"list": {}}, "num_args": {"i": "1"}, "use_cudnn_on_gpu": {"b": true}, "dilations": {"list": {"i": ["1", "1", "1", "1"]}}, "fused_ops": {"list": {"s": ["Qmlhc0FkZA==", "UmVsdQ=="]}}}}, {"name": "StatefulPartitionedCall/CTC_kerasModel4linerout/expanded_conv_7/squeeze_excite/Conv_1/BiasAdd", "op": "_FusedConv2D", "input": ["StatefulPartitionedCall/CTC_kerasModel4linerout/expanded_conv_7/squeeze_excite/Relu/Relu", "unknown_136", "unknown_137"], "device": "/device:CPU:0", "attr": {"num_args": {"i": "1"}, "explicit_paddings": {"list": {}}, "data_format": {"s": "TkhXQw=="}, "epsilon": {"f": 0.0}, "use_cudnn_on_gpu": {"b": true}, "dilations": {"list": {"i": ["1", "1", "1", "1"]}}, "strides": {"list": {"i": ["1", "1", "1", "1"]}}, "padding": {"s": "U0FNRQ=="}, "fused_ops": {"list": {"s": ["Qmlhc0FkZA=="]}}, "T": {"type": "DT_FLOAT"}}}, {"name": "StatefulPartitionedCall/CTC_kerasModel4linerout/tf_op_layer_AddV2_16/AddV2_16", "op": "AddV2", "input": ["StatefulPartitionedCall/CTC_kerasModel4linerout/expanded_conv_7/squeeze_excite/Conv_1/BiasAdd", "StatefulPartitionedCall/CTC_kerasModel4linerout/tf_op_layer_AddV2_16/AddV2_16/y"], "attr": {"T": {"type": "DT_FLOAT"}, "_cloned": {"b": true}}}, {"name": "StatefulPartitionedCall/CTC_kerasModel4linerout/re_lu_21/Relu6", "op": "Relu6", "input": ["StatefulPartitionedCall/CTC_kerasModel4linerout/tf_op_layer_AddV2_16/AddV2_16"], "attr": {"T": {"type": "DT_FLOAT"}}}, {"name": "StatefulPartitionedCall/CTC_kerasModel4linerout/tf_op_layer_Mul_16/Mul_16", "op": "Mul", "input": ["StatefulPartitionedCall/CTC_kerasModel4linerout/tf_op_layer_Mul_16/Mul_16/y", "StatefulPartitionedCall/CTC_kerasModel4linerout/re_lu_21/Relu6"], "attr": {"_grappler_ArithmeticOptimizer_MinimizeBroadcasts": {"b": true}, "T": {"type": "DT_FLOAT"}, "_cloned": {"b": true}}}, {"name": "StatefulPartitionedCall/CTC_kerasModel4linerout/expanded_conv_7/squeeze_excite/Mul/mul", "op": "Mul", "input": ["StatefulPartitionedCall/CTC_kerasModel4linerout/tf_op_layer_Mul_16/Mul_16", "StatefulPartitionedCall/CTC_kerasModel4linerout/multiply_10/mul"], "attr": {"_grappler_ArithmeticOptimizer_MinimizeBroadcasts": {"b": true}, "T": {"type": "DT_FLOAT"}}}, {"name": "StatefulPartitionedCall/CTC_kerasModel4linerout/expanded_conv_7/project/BatchNorm/FusedBatchNormV3", "op": "_FusedConv2D", "input": ["StatefulPartitionedCall/CTC_kerasModel4linerout/expanded_conv_7/squeeze_excite/Mul/mul", "StatefulPartitionedCall/CTC_kerasModel4linerout/expanded_conv_7/project/Conv2D_weights", "StatefulPartitionedCall/CTC_kerasModel4linerout/expanded_conv_7/project/Conv2D_bn_offset"], "device": "/device:CPU:0", "attr": {"fused_ops": {"list": {"s": ["Qmlhc0FkZA=="]}}, "num_args": {"i": "1"}, "epsilon": {"f": 0.0}, "data_format": {"s": "TkhXQw=="}, "padding": {"s": "U0FNRQ=="}, "strides": {"list": {"i": ["1", "1", "1", "1"]}}, "explicit_paddings": {"list": {}}, "dilations": {"list": {"i": ["1", "1", "1", "1"]}}, "T": {"type": "DT_FLOAT"}, "use_cudnn_on_gpu": {"b": true}}}, {"name": "StatefulPartitionedCall/CTC_kerasModel4linerout/expanded_conv_7/Add/add", "op": "AddV2", "input": ["StatefulPartitionedCall/CTC_kerasModel4linerout/expanded_conv_6/project/BatchNorm/FusedBatchNormV3", "StatefulPartitionedCall/CTC_kerasModel4linerout/expanded_conv_7/project/BatchNorm/FusedBatchNormV3"], "attr": {"T": {"type": "DT_FLOAT"}}}, {"name": "StatefulPartitionedCall/CTC_kerasModel4linerout/expanded_conv_8/expand/BatchNorm/FusedBatchNormV3", "op": "_FusedConv2D", "input": ["StatefulPartitionedCall/CTC_kerasModel4linerout/expanded_conv_7/Add/add", "StatefulPartitionedCall/CTC_kerasModel4linerout/expanded_conv_8/expand/Conv2D_weights", "StatefulPartitionedCall/CTC_kerasModel4linerout/expanded_conv_8/expand/Conv2D_bn_offset"], "device": "/device:CPU:0", "attr": {"explicit_paddings": {"list": {}}, "use_cudnn_on_gpu": {"b": true}, "padding": {"s": "U0FNRQ=="}, "strides": {"list": {"i": ["1", "1", "1", "1"]}}, "num_args": {"i": "1"}, "epsilon": {"f": 0.0}, "fused_ops": {"list": {"s": ["Qmlhc0FkZA=="]}}, "dilations": {"list": {"i": ["1", "1", "1", "1"]}}, "T": {"type": "DT_FLOAT"}, "data_format": {"s": "TkhXQw=="}}}, {"name": "StatefulPartitionedCall/CTC_kerasModel4linerout/tf_op_layer_AddV2_17/AddV2_17", "op": "AddV2", "input": ["StatefulPartitionedCall/CTC_kerasModel4linerout/expanded_conv_8/expand/BatchNorm/FusedBatchNormV3", "StatefulPartitionedCall/CTC_kerasModel4linerout/tf_op_layer_AddV2_17/AddV2_17/y"], "attr": {"T": {"type": "DT_FLOAT"}, "_cloned": {"b": true}}}, {"name": "StatefulPartitionedCall/CTC_kerasModel4linerout/re_lu_22/Relu6", "op": "Relu6", "input": ["StatefulPartitionedCall/CTC_kerasModel4linerout/tf_op_layer_AddV2_17/AddV2_17"], "attr": {"T": {"type": "DT_FLOAT"}}}, {"name": "StatefulPartitionedCall/CTC_kerasModel4linerout/tf_op_layer_Mul_17/Mul_17", "op": "Mul", "input": ["StatefulPartitionedCall/CTC_kerasModel4linerout/tf_op_layer_Mul_17/Mul_17/y", "StatefulPartitionedCall/CTC_kerasModel4linerout/re_lu_22/Relu6"], "attr": {"_grappler_ArithmeticOptimizer_MinimizeBroadcasts": {"b": true}, "_cloned": {"b": true}, "T": {"type": "DT_FLOAT"}}}, {"name": "StatefulPartitionedCall/CTC_kerasModel4linerout/multiply_11/mul", "op": "Mul", "input": ["StatefulPartitionedCall/CTC_kerasModel4linerout/tf_op_layer_Mul_17/Mul_17", "StatefulPartitionedCall/CTC_kerasModel4linerout/expanded_conv_8/expand/BatchNorm/FusedBatchNormV3"], "attr": {"_grappler_ArithmeticOptimizer_MinimizeBroadcasts": {"b": true}, "T": {"type": "DT_FLOAT"}}}, {"name": "StatefulPartitionedCall/CTC_kerasModel4linerout/expanded_conv_8/depthwise/pad/Pad", "op": "Pad", "input": ["StatefulPartitionedCall/CTC_kerasModel4linerout/multiply_11/mul", "StatefulPartitionedCall/CTC_kerasModel4linerout/expanded_conv_8/depthwise/pad/Pad/paddings"], "attr": {"Tpaddings": {"type": "DT_INT32"}, "T": {"type": "DT_FLOAT"}}}, {"name": "StatefulPartitionedCall/CTC_kerasModel4linerout/expanded_conv_8/depthwise/depthwise", "op": "FusedDepthwiseConv2dNative", "input": ["StatefulPartitionedCall/CTC_kerasModel4linerout/expanded_conv_8/depthwise/pad/Pad", "StatefulPartitionedCall/CTC_kerasModel4linerout/expanded_conv_8/depthwise/depthwise_weights", "StatefulPartitionedCall/CTC_kerasModel4linerout/expanded_conv_8/depthwise/depthwise_bn_offset"], "attr": {"data_format": {"s": "TkhXQw=="}, "explicit_paddings": {"list": {}}, "dilations": {"list": {"i": ["1", "1", "1", "1"]}}, "strides": {"list": {"i": ["1", "2", "2", "1"]}}, "padding": {"s": "VkFMSUQ="}, "num_args": {"i": "1"}, "T": {"type": "DT_FLOAT"}, "fused_ops": {"list": {"s": ["Qmlhc0FkZA=="]}}}}, {"name": "StatefulPartitionedCall/CTC_kerasModel4linerout/tf_op_layer_AddV2_18/AddV2_18", "op": "AddV2", "input": ["StatefulPartitionedCall/CTC_kerasModel4linerout/expanded_conv_8/depthwise/depthwise", "StatefulPartitionedCall/CTC_kerasModel4linerout/tf_op_layer_AddV2_18/AddV2_18/y"], "attr": {"T": {"type": "DT_FLOAT"}, "_cloned": {"b": true}}}, {"name": "StatefulPartitionedCall/CTC_kerasModel4linerout/re_lu_23/Relu6", "op": "Relu6", "input": ["StatefulPartitionedCall/CTC_kerasModel4linerout/tf_op_layer_AddV2_18/AddV2_18"], "attr": {"T": {"type": "DT_FLOAT"}}}, {"name": "StatefulPartitionedCall/CTC_kerasModel4linerout/tf_op_layer_Mul_18/Mul_18", "op": "Mul", "input": ["StatefulPartitionedCall/CTC_kerasModel4linerout/tf_op_layer_Mul_18/Mul_18/y", "StatefulPartitionedCall/CTC_kerasModel4linerout/re_lu_23/Relu6"], "attr": {"_cloned": {"b": true}, "_grappler_ArithmeticOptimizer_MinimizeBroadcasts": {"b": true}, "T": {"type": "DT_FLOAT"}}}, {"name": "StatefulPartitionedCall/CTC_kerasModel4linerout/multiply_12/mul", "op": "Mul", "input": ["StatefulPartitionedCall/CTC_kerasModel4linerout/tf_op_layer_Mul_18/Mul_18", "StatefulPartitionedCall/CTC_kerasModel4linerout/expanded_conv_8/depthwise/depthwise"], "attr": {"T": {"type": "DT_FLOAT"}, "_grappler_ArithmeticOptimizer_MinimizeBroadcasts": {"b": true}}}, {"name": "StatefulPartitionedCall/CTC_kerasModel4linerout/expanded_conv_8/squeeze_excite/AvgPool/Mean", "op": "Mean", "input": ["StatefulPartitionedCall/CTC_kerasModel4linerout/multiply_12/mul", "StatefulPartitionedCall/CTC_kerasModel4linerout/expanded_conv_8/squeeze_excite/AvgPool/Mean/reduction_indices"], "attr": {"Tidx": {"type": "DT_INT32"}, "keep_dims": {"b": false}, "T": {"type": "DT_FLOAT"}}}, {"name": "StatefulPartitionedCall/CTC_kerasModel4linerout/reshape_7/Shape", "op": "Shape", "input": ["StatefulPartitionedCall/CTC_kerasModel4linerout/expanded_conv_8/squeeze_excite/AvgPool/Mean"], "attr": {"T": {"type": "DT_FLOAT"}, "out_type": {"type": "DT_INT32"}}}, {"name": "StatefulPartitionedCall/CTC_kerasModel4linerout/reshape_7/strided_slice", "op": "StridedSlice", "input": ["StatefulPartitionedCall/CTC_kerasModel4linerout/reshape_7/Shape", "StatefulPartitionedCall/CTC_kerasModel4linerout/reshape_7/strided_slice/stack", "StatefulPartitionedCall/CTC_kerasModel4linerout/reshape_7/strided_slice/stack_1", "StatefulPartitionedCall/CTC_kerasModel4linerout/reshape_7/strided_slice/stack_2"], "attr": {"shrink_axis_mask": {"i": "1"}, "ellipsis_mask": {"i": "0"}, "T": {"type": "DT_INT32"}, "Index": {"type": "DT_INT32"}, "end_mask": {"i": "0"}, "begin_mask": {"i": "0"}, "new_axis_mask": {"i": "0"}}}, {"name": "StatefulPartitionedCall/CTC_kerasModel4linerout/reshape_7/Reshape/shape", "op": "Pack", "input": ["StatefulPartitionedCall/CTC_kerasModel4linerout/reshape_7/strided_slice", "StatefulPartitionedCall/CTC_kerasModel4linerout/reshape_7/Reshape/shape/1", "StatefulPartitionedCall/CTC_kerasModel4linerout/reshape_7/Reshape/shape/2", "StatefulPartitionedCall/CTC_kerasModel4linerout/reshape_7/Reshape/shape/3"], "attr": {"axis": {"i": "0"}, "N": {"i": "4"}, "T": {"type": "DT_INT32"}}}, {"name": "StatefulPartitionedCall/CTC_kerasModel4linerout/reshape_7/Reshape", "op": "Reshape", "input": ["StatefulPartitionedCall/CTC_kerasModel4linerout/expanded_conv_8/squeeze_excite/AvgPool/Mean", "StatefulPartitionedCall/CTC_kerasModel4linerout/reshape_7/Reshape/shape"], "attr": {"T": {"type": "DT_FLOAT"}, "Tshape": {"type": "DT_INT32"}}}, {"name": "StatefulPartitionedCall/CTC_kerasModel4linerout/expanded_conv_8/squeeze_excite/Relu/Relu", "op": "_FusedConv2D", "input": ["StatefulPartitionedCall/CTC_kerasModel4linerout/reshape_7/Reshape", "unknown_153", "unknown_154"], "device": "/device:CPU:0", "attr": {"epsilon": {"f": 0.0}, "num_args": {"i": "1"}, "data_format": {"s": "TkhXQw=="}, "padding": {"s": "U0FNRQ=="}, "dilations": {"list": {"i": ["1", "1", "1", "1"]}}, "use_cudnn_on_gpu": {"b": true}, "explicit_paddings": {"list": {}}, "strides": {"list": {"i": ["1", "1", "1", "1"]}}, "T": {"type": "DT_FLOAT"}, "fused_ops": {"list": {"s": ["Qmlhc0FkZA==", "UmVsdQ=="]}}}}, {"name": "StatefulPartitionedCall/CTC_kerasModel4linerout/expanded_conv_8/squeeze_excite/Conv_1/BiasAdd", "op": "_FusedConv2D", "input": ["StatefulPartitionedCall/CTC_kerasModel4linerout/expanded_conv_8/squeeze_excite/Relu/Relu", "unknown_155", "unknown_156"], "device": "/device:CPU:0", "attr": {"explicit_paddings": {"list": {}}, "strides": {"list": {"i": ["1", "1", "1", "1"]}}, "T": {"type": "DT_FLOAT"}, "data_format": {"s": "TkhXQw=="}, "padding": {"s": "U0FNRQ=="}, "use_cudnn_on_gpu": {"b": true}, "dilations": {"list": {"i": ["1", "1", "1", "1"]}}, "fused_ops": {"list": {"s": ["Qmlhc0FkZA=="]}}, "num_args": {"i": "1"}, "epsilon": {"f": 0.0}}}, {"name": "StatefulPartitionedCall/CTC_kerasModel4linerout/tf_op_layer_AddV2_19/AddV2_19", "op": "AddV2", "input": ["StatefulPartitionedCall/CTC_kerasModel4linerout/expanded_conv_8/squeeze_excite/Conv_1/BiasAdd", "StatefulPartitionedCall/CTC_kerasModel4linerout/tf_op_layer_AddV2_19/AddV2_19/y"], "attr": {"T": {"type": "DT_FLOAT"}, "_cloned": {"b": true}}}, {"name": "StatefulPartitionedCall/CTC_kerasModel4linerout/re_lu_24/Relu6", "op": "Relu6", "input": ["StatefulPartitionedCall/CTC_kerasModel4linerout/tf_op_layer_AddV2_19/AddV2_19"], "attr": {"T": {"type": "DT_FLOAT"}}}, {"name": "StatefulPartitionedCall/CTC_kerasModel4linerout/tf_op_layer_Mul_19/Mul_19", "op": "Mul", "input": ["StatefulPartitionedCall/CTC_kerasModel4linerout/tf_op_layer_Mul_19/Mul_19/y", "StatefulPartitionedCall/CTC_kerasModel4linerout/re_lu_24/Relu6"], "attr": {"_cloned": {"b": true}, "T": {"type": "DT_FLOAT"}, "_grappler_ArithmeticOptimizer_MinimizeBroadcasts": {"b": true}}}, {"name": "StatefulPartitionedCall/CTC_kerasModel4linerout/expanded_conv_8/squeeze_excite/Mul/mul", "op": "Mul", "input": ["StatefulPartitionedCall/CTC_kerasModel4linerout/tf_op_layer_Mul_19/Mul_19", "StatefulPartitionedCall/CTC_kerasModel4linerout/multiply_12/mul"], "attr": {"_grappler_ArithmeticOptimizer_MinimizeBroadcasts": {"b": true}, "T": {"type": "DT_FLOAT"}}}, {"name": "StatefulPartitionedCall/CTC_kerasModel4linerout/expanded_conv_8/project/BatchNorm/FusedBatchNormV3", "op": "_FusedConv2D", "input": ["StatefulPartitionedCall/CTC_kerasModel4linerout/expanded_conv_8/squeeze_excite/Mul/mul", "StatefulPartitionedCall/CTC_kerasModel4linerout/expanded_conv_8/project/Conv2D_weights", "StatefulPartitionedCall/CTC_kerasModel4linerout/expanded_conv_8/project/Conv2D_bn_offset"], "device": "/device:CPU:0", "attr": {"epsilon": {"f": 0.0}, "fused_ops": {"list": {"s": ["Qmlhc0FkZA=="]}}, "dilations": {"list": {"i": ["1", "1", "1", "1"]}}, "strides": {"list": {"i": ["1", "1", "1", "1"]}}, "data_format": {"s": "TkhXQw=="}, "use_cudnn_on_gpu": {"b": true}, "padding": {"s": "U0FNRQ=="}, "T": {"type": "DT_FLOAT"}, "explicit_paddings": {"list": {}}, "num_args": {"i": "1"}}}, {"name": "StatefulPartitionedCall/CTC_kerasModel4linerout/expanded_conv_9/expand/BatchNorm/FusedBatchNormV3", "op": "_FusedConv2D", "input": ["StatefulPartitionedCall/CTC_kerasModel4linerout/expanded_conv_8/project/BatchNorm/FusedBatchNormV3", "StatefulPartitionedCall/CTC_kerasModel4linerout/expanded_conv_9/expand/Conv2D_weights", "StatefulPartitionedCall/CTC_kerasModel4linerout/expanded_conv_9/expand/Conv2D_bn_offset"], "device": "/device:CPU:0", "attr": {"explicit_paddings": {"list": {}}, "num_args": {"i": "1"}, "padding": {"s": "U0FNRQ=="}, "dilations": {"list": {"i": ["1", "1", "1", "1"]}}, "epsilon": {"f": 0.0}, "strides": {"list": {"i": ["1", "1", "1", "1"]}}, "T": {"type": "DT_FLOAT"}, "use_cudnn_on_gpu": {"b": true}, "fused_ops": {"list": {"s": ["Qmlhc0FkZA=="]}}, "data_format": {"s": "TkhXQw=="}}}, {"name": "StatefulPartitionedCall/CTC_kerasModel4linerout/tf_op_layer_AddV2_20/AddV2_20", "op": "AddV2", "input": ["StatefulPartitionedCall/CTC_kerasModel4linerout/expanded_conv_9/expand/BatchNorm/FusedBatchNormV3", "StatefulPartitionedCall/CTC_kerasModel4linerout/tf_op_layer_AddV2_20/AddV2_20/y"], "attr": {"T": {"type": "DT_FLOAT"}, "_cloned": {"b": true}}}, {"name": "StatefulPartitionedCall/CTC_kerasModel4linerout/re_lu_25/Relu6", "op": "Relu6", "input": ["StatefulPartitionedCall/CTC_kerasModel4linerout/tf_op_layer_AddV2_20/AddV2_20"], "attr": {"T": {"type": "DT_FLOAT"}}}, {"name": "StatefulPartitionedCall/CTC_kerasModel4linerout/tf_op_layer_Mul_20/Mul_20", "op": "Mul", "input": ["StatefulPartitionedCall/CTC_kerasModel4linerout/tf_op_layer_Mul_20/Mul_20/y", "StatefulPartitionedCall/CTC_kerasModel4linerout/re_lu_25/Relu6"], "attr": {"_grappler_ArithmeticOptimizer_MinimizeBroadcasts": {"b": true}, "T": {"type": "DT_FLOAT"}, "_cloned": {"b": true}}}, {"name": "StatefulPartitionedCall/CTC_kerasModel4linerout/multiply_13/mul", "op": "Mul", "input": ["StatefulPartitionedCall/CTC_kerasModel4linerout/tf_op_layer_Mul_20/Mul_20", "StatefulPartitionedCall/CTC_kerasModel4linerout/expanded_conv_9/expand/BatchNorm/FusedBatchNormV3"], "attr": {"T": {"type": "DT_FLOAT"}, "_grappler_ArithmeticOptimizer_MinimizeBroadcasts": {"b": true}}}, {"name": "StatefulPartitionedCall/CTC_kerasModel4linerout/expanded_conv_9/depthwise/depthwise", "op": "FusedDepthwiseConv2dNative", "input": ["StatefulPartitionedCall/CTC_kerasModel4linerout/multiply_13/mul", "StatefulPartitionedCall/CTC_kerasModel4linerout/expanded_conv_9/depthwise/depthwise_weights", "StatefulPartitionedCall/CTC_kerasModel4linerout/expanded_conv_9/depthwise/depthwise_bn_offset"], "attr": {"fused_ops": {"list": {"s": ["Qmlhc0FkZA=="]}}, "num_args": {"i": "1"}, "padding": {"s": "U0FNRQ=="}, "data_format": {"s": "TkhXQw=="}, "T": {"type": "DT_FLOAT"}, "dilations": {"list": {"i": ["1", "1", "1", "1"]}}, "explicit_paddings": {"list": {}}, "strides": {"list": {"i": ["1", "1", "1", "1"]}}}}, {"name": "StatefulPartitionedCall/CTC_kerasModel4linerout/tf_op_layer_AddV2_21/AddV2_21", "op": "AddV2", "input": ["StatefulPartitionedCall/CTC_kerasModel4linerout/expanded_conv_9/depthwise/depthwise", "StatefulPartitionedCall/CTC_kerasModel4linerout/tf_op_layer_AddV2_21/AddV2_21/y"], "attr": {"_cloned": {"b": true}, "T": {"type": "DT_FLOAT"}}}, {"name": "StatefulPartitionedCall/CTC_kerasModel4linerout/re_lu_26/Relu6", "op": "Relu6", "input": ["StatefulPartitionedCall/CTC_kerasModel4linerout/tf_op_layer_AddV2_21/AddV2_21"], "attr": {"T": {"type": "DT_FLOAT"}}}, {"name": "StatefulPartitionedCall/CTC_kerasModel4linerout/tf_op_layer_Mul_21/Mul_21", "op": "Mul", "input": ["StatefulPartitionedCall/CTC_kerasModel4linerout/tf_op_layer_Mul_21/Mul_21/y", "StatefulPartitionedCall/CTC_kerasModel4linerout/re_lu_26/Relu6"], "attr": {"_cloned": {"b": true}, "T": {"type": "DT_FLOAT"}, "_grappler_ArithmeticOptimizer_MinimizeBroadcasts": {"b": true}}}, {"name": "StatefulPartitionedCall/CTC_kerasModel4linerout/multiply_14/mul", "op": "Mul", "input": ["StatefulPartitionedCall/CTC_kerasModel4linerout/tf_op_layer_Mul_21/Mul_21", "StatefulPartitionedCall/CTC_kerasModel4linerout/expanded_conv_9/depthwise/depthwise"], "attr": {"T": {"type": "DT_FLOAT"}, "_grappler_ArithmeticOptimizer_MinimizeBroadcasts": {"b": true}}}, {"name": "StatefulPartitionedCall/CTC_kerasModel4linerout/expanded_conv_9/squeeze_excite/AvgPool/Mean", "op": "Mean", "input": ["StatefulPartitionedCall/CTC_kerasModel4linerout/multiply_14/mul", "StatefulPartitionedCall/CTC_kerasModel4linerout/expanded_conv_9/squeeze_excite/AvgPool/Mean/reduction_indices"], "attr": {"keep_dims": {"b": false}, "T": {"type": "DT_FLOAT"}, "Tidx": {"type": "DT_INT32"}}}, {"name": "StatefulPartitionedCall/CTC_kerasModel4linerout/reshape_8/Shape", "op": "Shape", "input": ["StatefulPartitionedCall/CTC_kerasModel4linerout/expanded_conv_9/squeeze_excite/AvgPool/Mean"], "attr": {"T": {"type": "DT_FLOAT"}, "out_type": {"type": "DT_INT32"}}}, {"name": "StatefulPartitionedCall/CTC_kerasModel4linerout/reshape_8/strided_slice", "op": "StridedSlice", "input": ["StatefulPartitionedCall/CTC_kerasModel4linerout/reshape_8/Shape", "StatefulPartitionedCall/CTC_kerasModel4linerout/reshape_8/strided_slice/stack", "StatefulPartitionedCall/CTC_kerasModel4linerout/reshape_8/strided_slice/stack_1", "StatefulPartitionedCall/CTC_kerasModel4linerout/reshape_8/strided_slice/stack_2"], "attr": {"Index": {"type": "DT_INT32"}, "ellipsis_mask": {"i": "0"}, "shrink_axis_mask": {"i": "1"}, "new_axis_mask": {"i": "0"}, "end_mask": {"i": "0"}, "begin_mask": {"i": "0"}, "T": {"type": "DT_INT32"}}}, {"name": "StatefulPartitionedCall/CTC_kerasModel4linerout/reshape_8/Reshape/shape", "op": "Pack", "input": ["StatefulPartitionedCall/CTC_kerasModel4linerout/reshape_8/strided_slice", "StatefulPartitionedCall/CTC_kerasModel4linerout/reshape_8/Reshape/shape/1", "StatefulPartitionedCall/CTC_kerasModel4linerout/reshape_8/Reshape/shape/2", "StatefulPartitionedCall/CTC_kerasModel4linerout/reshape_8/Reshape/shape/3"], "attr": {"N": {"i": "4"}, "axis": {"i": "0"}, "T": {"type": "DT_INT32"}}}, {"name": "StatefulPartitionedCall/CTC_kerasModel4linerout/reshape_8/Reshape", "op": "Reshape", "input": ["StatefulPartitionedCall/CTC_kerasModel4linerout/expanded_conv_9/squeeze_excite/AvgPool/Mean", "StatefulPartitionedCall/CTC_kerasModel4linerout/reshape_8/Reshape/shape"], "attr": {"T": {"type": "DT_FLOAT"}, "Tshape": {"type": "DT_INT32"}}}, {"name": "StatefulPartitionedCall/CTC_kerasModel4linerout/expanded_conv_9/squeeze_excite/Relu/Relu", "op": "_FusedConv2D", "input": ["StatefulPartitionedCall/CTC_kerasModel4linerout/reshape_8/Reshape", "unknown_172", "unknown_173"], "device": "/device:CPU:0", "attr": {"fused_ops": {"list": {"s": ["Qmlhc0FkZA==", "UmVsdQ=="]}}, "strides": {"list": {"i": ["1", "1", "1", "1"]}}, "dilations": {"list": {"i": ["1", "1", "1", "1"]}}, "data_format": {"s": "TkhXQw=="}, "explicit_paddings": {"list": {}}, "padding": {"s": "U0FNRQ=="}, "num_args": {"i": "1"}, "T": {"type": "DT_FLOAT"}, "use_cudnn_on_gpu": {"b": true}, "epsilon": {"f": 0.0}}}, {"name": "StatefulPartitionedCall/CTC_kerasModel4linerout/expanded_conv_9/squeeze_excite/Conv_1/BiasAdd", "op": "_FusedConv2D", "input": ["StatefulPartitionedCall/CTC_kerasModel4linerout/expanded_conv_9/squeeze_excite/Relu/Relu", "unknown_174", "unknown_175"], "device": "/device:CPU:0", "attr": {"padding": {"s": "U0FNRQ=="}, "num_args": {"i": "1"}, "strides": {"list": {"i": ["1", "1", "1", "1"]}}, "epsilon": {"f": 0.0}, "T": {"type": "DT_FLOAT"}, "data_format": {"s": "TkhXQw=="}, "use_cudnn_on_gpu": {"b": true}, "explicit_paddings": {"list": {}}, "fused_ops": {"list": {"s": ["Qmlhc0FkZA=="]}}, "dilations": {"list": {"i": ["1", "1", "1", "1"]}}}}, {"name": "StatefulPartitionedCall/CTC_kerasModel4linerout/tf_op_layer_AddV2_22/AddV2_22", "op": "AddV2", "input": ["StatefulPartitionedCall/CTC_kerasModel4linerout/expanded_conv_9/squeeze_excite/Conv_1/BiasAdd", "StatefulPartitionedCall/CTC_kerasModel4linerout/tf_op_layer_AddV2_22/AddV2_22/y"], "attr": {"_cloned": {"b": true}, "T": {"type": "DT_FLOAT"}}}, {"name": "StatefulPartitionedCall/CTC_kerasModel4linerout/re_lu_27/Relu6", "op": "Relu6", "input": ["StatefulPartitionedCall/CTC_kerasModel4linerout/tf_op_layer_AddV2_22/AddV2_22"], "attr": {"T": {"type": "DT_FLOAT"}}}, {"name": "StatefulPartitionedCall/CTC_kerasModel4linerout/tf_op_layer_Mul_22/Mul_22", "op": "Mul", "input": ["StatefulPartitionedCall/CTC_kerasModel4linerout/tf_op_layer_Mul_22/Mul_22/y", "StatefulPartitionedCall/CTC_kerasModel4linerout/re_lu_27/Relu6"], "attr": {"_grappler_ArithmeticOptimizer_MinimizeBroadcasts": {"b": true}, "T": {"type": "DT_FLOAT"}, "_cloned": {"b": true}}}, {"name": "StatefulPartitionedCall/CTC_kerasModel4linerout/expanded_conv_9/squeeze_excite/Mul/mul", "op": "Mul", "input": ["StatefulPartitionedCall/CTC_kerasModel4linerout/tf_op_layer_Mul_22/Mul_22", "StatefulPartitionedCall/CTC_kerasModel4linerout/multiply_14/mul"], "attr": {"T": {"type": "DT_FLOAT"}, "_grappler_ArithmeticOptimizer_MinimizeBroadcasts": {"b": true}}}, {"name": "StatefulPartitionedCall/CTC_kerasModel4linerout/expanded_conv_9/project/BatchNorm/FusedBatchNormV3", "op": "_FusedConv2D", "input": ["StatefulPartitionedCall/CTC_kerasModel4linerout/expanded_conv_9/squeeze_excite/Mul/mul", "StatefulPartitionedCall/CTC_kerasModel4linerout/expanded_conv_9/project/Conv2D_weights", "StatefulPartitionedCall/CTC_kerasModel4linerout/expanded_conv_9/project/Conv2D_bn_offset"], "device": "/device:CPU:0", "attr": {"explicit_paddings": {"list": {}}, "dilations": {"list": {"i": ["1", "1", "1", "1"]}}, "strides": {"list": {"i": ["1", "1", "1", "1"]}}, "use_cudnn_on_gpu": {"b": true}, "fused_ops": {"list": {"s": ["Qmlhc0FkZA=="]}}, "num_args": {"i": "1"}, "data_format": {"s": "TkhXQw=="}, "padding": {"s": "U0FNRQ=="}, "epsilon": {"f": 0.0}, "T": {"type": "DT_FLOAT"}}}, {"name": "StatefulPartitionedCall/CTC_kerasModel4linerout/expanded_conv_9/Add/add", "op": "AddV2", "input": ["StatefulPartitionedCall/CTC_kerasModel4linerout/expanded_conv_8/project/BatchNorm/FusedBatchNormV3", "StatefulPartitionedCall/CTC_kerasModel4linerout/expanded_conv_9/project/BatchNorm/FusedBatchNormV3"], "attr": {"T": {"type": "DT_FLOAT"}}}, {"name": "StatefulPartitionedCall/CTC_kerasModel4linerout/expanded_conv_10/expand/BatchNorm/FusedBatchNormV3", "op": "_FusedConv2D", "input": ["StatefulPartitionedCall/CTC_kerasModel4linerout/expanded_conv_9/Add/add", "StatefulPartitionedCall/CTC_kerasModel4linerout/expanded_conv_10/expand/Conv2D_weights", "StatefulPartitionedCall/CTC_kerasModel4linerout/expanded_conv_10/expand/Conv2D_bn_offset"], "device": "/device:CPU:0", "attr": {"data_format": {"s": "TkhXQw=="}, "T": {"type": "DT_FLOAT"}, "epsilon": {"f": 0.0}, "dilations": {"list": {"i": ["1", "1", "1", "1"]}}, "strides": {"list": {"i": ["1", "1", "1", "1"]}}, "explicit_paddings": {"list": {}}, "use_cudnn_on_gpu": {"b": true}, "fused_ops": {"list": {"s": ["Qmlhc0FkZA=="]}}, "num_args": {"i": "1"}, "padding": {"s": "U0FNRQ=="}}}, {"name": "StatefulPartitionedCall/CTC_kerasModel4linerout/tf_op_layer_AddV2_23/AddV2_23", "op": "AddV2", "input": ["StatefulPartitionedCall/CTC_kerasModel4linerout/expanded_conv_10/expand/BatchNorm/FusedBatchNormV3", "StatefulPartitionedCall/CTC_kerasModel4linerout/tf_op_layer_AddV2_23/AddV2_23/y"], "attr": {"T": {"type": "DT_FLOAT"}, "_cloned": {"b": true}}}, {"name": "StatefulPartitionedCall/CTC_kerasModel4linerout/re_lu_28/Relu6", "op": "Relu6", "input": ["StatefulPartitionedCall/CTC_kerasModel4linerout/tf_op_layer_AddV2_23/AddV2_23"], "attr": {"T": {"type": "DT_FLOAT"}}}, {"name": "StatefulPartitionedCall/CTC_kerasModel4linerout/tf_op_layer_Mul_23/Mul_23", "op": "Mul", "input": ["StatefulPartitionedCall/CTC_kerasModel4linerout/tf_op_layer_Mul_23/Mul_23/y", "StatefulPartitionedCall/CTC_kerasModel4linerout/re_lu_28/Relu6"], "attr": {"_cloned": {"b": true}, "T": {"type": "DT_FLOAT"}, "_grappler_ArithmeticOptimizer_MinimizeBroadcasts": {"b": true}}}, {"name": "StatefulPartitionedCall/CTC_kerasModel4linerout/multiply_15/mul", "op": "Mul", "input": ["StatefulPartitionedCall/CTC_kerasModel4linerout/tf_op_layer_Mul_23/Mul_23", "StatefulPartitionedCall/CTC_kerasModel4linerout/expanded_conv_10/expand/BatchNorm/FusedBatchNormV3"], "attr": {"T": {"type": "DT_FLOAT"}, "_grappler_ArithmeticOptimizer_MinimizeBroadcasts": {"b": true}}}, {"name": "StatefulPartitionedCall/CTC_kerasModel4linerout/expanded_conv_10/depthwise/depthwise", "op": "FusedDepthwiseConv2dNative", "input": ["StatefulPartitionedCall/CTC_kerasModel4linerout/multiply_15/mul", "StatefulPartitionedCall/CTC_kerasModel4linerout/expanded_conv_10/depthwise/depthwise_weights", "StatefulPartitionedCall/CTC_kerasModel4linerout/expanded_conv_10/depthwise/depthwise_bn_offset"], "attr": {"num_args": {"i": "1"}, "T": {"type": "DT_FLOAT"}, "strides": {"list": {"i": ["1", "1", "1", "1"]}}, "dilations": {"list": {"i": ["1", "1", "1", "1"]}}, "explicit_paddings": {"list": {}}, "data_format": {"s": "TkhXQw=="}, "padding": {"s": "U0FNRQ=="}, "fused_ops": {"list": {"s": ["Qmlhc0FkZA=="]}}}}, {"name": "StatefulPartitionedCall/CTC_kerasModel4linerout/tf_op_layer_AddV2_24/AddV2_24", "op": "AddV2", "input": ["StatefulPartitionedCall/CTC_kerasModel4linerout/expanded_conv_10/depthwise/depthwise", "StatefulPartitionedCall/CTC_kerasModel4linerout/tf_op_layer_AddV2_24/AddV2_24/y"], "attr": {"_cloned": {"b": true}, "T": {"type": "DT_FLOAT"}}}, {"name": "StatefulPartitionedCall/CTC_kerasModel4linerout/re_lu_29/Relu6", "op": "Relu6", "input": ["StatefulPartitionedCall/CTC_kerasModel4linerout/tf_op_layer_AddV2_24/AddV2_24"], "attr": {"T": {"type": "DT_FLOAT"}}}, {"name": "StatefulPartitionedCall/CTC_kerasModel4linerout/tf_op_layer_Mul_24/Mul_24", "op": "Mul", "input": ["StatefulPartitionedCall/CTC_kerasModel4linerout/tf_op_layer_Mul_24/Mul_24/y", "StatefulPartitionedCall/CTC_kerasModel4linerout/re_lu_29/Relu6"], "attr": {"_cloned": {"b": true}, "_grappler_ArithmeticOptimizer_MinimizeBroadcasts": {"b": true}, "T": {"type": "DT_FLOAT"}}}, {"name": "StatefulPartitionedCall/CTC_kerasModel4linerout/multiply_16/mul", "op": "Mul", "input": ["StatefulPartitionedCall/CTC_kerasModel4linerout/tf_op_layer_Mul_24/Mul_24", "StatefulPartitionedCall/CTC_kerasModel4linerout/expanded_conv_10/depthwise/depthwise"], "attr": {"_grappler_ArithmeticOptimizer_MinimizeBroadcasts": {"b": true}, "T": {"type": "DT_FLOAT"}}}, {"name": "StatefulPartitionedCall/CTC_kerasModel4linerout/expanded_conv_10/squeeze_excite/AvgPool/Mean", "op": "Mean", "input": ["StatefulPartitionedCall/CTC_kerasModel4linerout/multiply_16/mul", "StatefulPartitionedCall/CTC_kerasModel4linerout/expanded_conv_10/squeeze_excite/AvgPool/Mean/reduction_indices"], "attr": {"Tidx": {"type": "DT_INT32"}, "T": {"type": "DT_FLOAT"}, "keep_dims": {"b": false}}}, {"name": "StatefulPartitionedCall/CTC_kerasModel4linerout/reshape_9/Shape", "op": "Shape", "input": ["StatefulPartitionedCall/CTC_kerasModel4linerout/expanded_conv_10/squeeze_excite/AvgPool/Mean"], "attr": {"T": {"type": "DT_FLOAT"}, "out_type": {"type": "DT_INT32"}}}, {"name": "StatefulPartitionedCall/CTC_kerasModel4linerout/reshape_9/strided_slice", "op": "StridedSlice", "input": ["StatefulPartitionedCall/CTC_kerasModel4linerout/reshape_9/Shape", "StatefulPartitionedCall/CTC_kerasModel4linerout/reshape_9/strided_slice/stack", "StatefulPartitionedCall/CTC_kerasModel4linerout/reshape_9/strided_slice/stack_1", "StatefulPartitionedCall/CTC_kerasModel4linerout/reshape_9/strided_slice/stack_2"], "attr": {"T": {"type": "DT_INT32"}, "end_mask": {"i": "0"}, "ellipsis_mask": {"i": "0"}, "Index": {"type": "DT_INT32"}, "new_axis_mask": {"i": "0"}, "begin_mask": {"i": "0"}, "shrink_axis_mask": {"i": "1"}}}, {"name": "StatefulPartitionedCall/CTC_kerasModel4linerout/reshape_9/Reshape/shape", "op": "Pack", "input": ["StatefulPartitionedCall/CTC_kerasModel4linerout/reshape_9/strided_slice", "StatefulPartitionedCall/CTC_kerasModel4linerout/reshape_9/Reshape/shape/1", "StatefulPartitionedCall/CTC_kerasModel4linerout/reshape_9/Reshape/shape/2", "StatefulPartitionedCall/CTC_kerasModel4linerout/reshape_9/Reshape/shape/3"], "attr": {"N": {"i": "4"}, "T": {"type": "DT_INT32"}, "axis": {"i": "0"}}}, {"name": "StatefulPartitionedCall/CTC_kerasModel4linerout/reshape_9/Reshape", "op": "Reshape", "input": ["StatefulPartitionedCall/CTC_kerasModel4linerout/expanded_conv_10/squeeze_excite/AvgPool/Mean", "StatefulPartitionedCall/CTC_kerasModel4linerout/reshape_9/Reshape/shape"], "attr": {"Tshape": {"type": "DT_INT32"}, "T": {"type": "DT_FLOAT"}}}, {"name": "StatefulPartitionedCall/CTC_kerasModel4linerout/expanded_conv_10/squeeze_excite/Relu/Relu", "op": "_FusedConv2D", "input": ["StatefulPartitionedCall/CTC_kerasModel4linerout/reshape_9/Reshape", "unknown_191", "unknown_192"], "device": "/device:CPU:0", "attr": {"explicit_paddings": {"list": {}}, "num_args": {"i": "1"}, "fused_ops": {"list": {"s": ["Qmlhc0FkZA==", "UmVsdQ=="]}}, "dilations": {"list": {"i": ["1", "1", "1", "1"]}}, "use_cudnn_on_gpu": {"b": true}, "padding": {"s": "U0FNRQ=="}, "epsilon": {"f": 0.0}, "data_format": {"s": "TkhXQw=="}, "T": {"type": "DT_FLOAT"}, "strides": {"list": {"i": ["1", "1", "1", "1"]}}}}, {"name": "StatefulPartitionedCall/CTC_kerasModel4linerout/expanded_conv_10/squeeze_excite/Conv_1/BiasAdd", "op": "_FusedConv2D", "input": ["StatefulPartitionedCall/CTC_kerasModel4linerout/expanded_conv_10/squeeze_excite/Relu/Relu", "unknown_193", "unknown_194"], "device": "/device:CPU:0", "attr": {"use_cudnn_on_gpu": {"b": true}, "epsilon": {"f": 0.0}, "fused_ops": {"list": {"s": ["Qmlhc0FkZA=="]}}, "T": {"type": "DT_FLOAT"}, "padding": {"s": "U0FNRQ=="}, "explicit_paddings": {"list": {}}, "strides": {"list": {"i": ["1", "1", "1", "1"]}}, "data_format": {"s": "TkhXQw=="}, "num_args": {"i": "1"}, "dilations": {"list": {"i": ["1", "1", "1", "1"]}}}}, {"name": "StatefulPartitionedCall/CTC_kerasModel4linerout/tf_op_layer_AddV2_25/AddV2_25", "op": "AddV2", "input": ["StatefulPartitionedCall/CTC_kerasModel4linerout/expanded_conv_10/squeeze_excite/Conv_1/BiasAdd", "StatefulPartitionedCall/CTC_kerasModel4linerout/tf_op_layer_AddV2_25/AddV2_25/y"], "attr": {"T": {"type": "DT_FLOAT"}, "_cloned": {"b": true}}}, {"name": "StatefulPartitionedCall/CTC_kerasModel4linerout/re_lu_30/Relu6", "op": "Relu6", "input": ["StatefulPartitionedCall/CTC_kerasModel4linerout/tf_op_layer_AddV2_25/AddV2_25"], "attr": {"T": {"type": "DT_FLOAT"}}}, {"name": "StatefulPartitionedCall/CTC_kerasModel4linerout/tf_op_layer_Mul_25/Mul_25", "op": "Mul", "input": ["StatefulPartitionedCall/CTC_kerasModel4linerout/tf_op_layer_Mul_25/Mul_25/y", "StatefulPartitionedCall/CTC_kerasModel4linerout/re_lu_30/Relu6"], "attr": {"_cloned": {"b": true}, "_grappler_ArithmeticOptimizer_MinimizeBroadcasts": {"b": true}, "T": {"type": "DT_FLOAT"}}}, {"name": "StatefulPartitionedCall/CTC_kerasModel4linerout/expanded_conv_10/squeeze_excite/Mul/mul", "op": "Mul", "input": ["StatefulPartitionedCall/CTC_kerasModel4linerout/tf_op_layer_Mul_25/Mul_25", "StatefulPartitionedCall/CTC_kerasModel4linerout/multiply_16/mul"], "attr": {"_grappler_ArithmeticOptimizer_MinimizeBroadcasts": {"b": true}, "T": {"type": "DT_FLOAT"}}}, {"name": "StatefulPartitionedCall/CTC_kerasModel4linerout/expanded_conv_10/project/BatchNorm/FusedBatchNormV3", "op": "_FusedConv2D", "input": ["StatefulPartitionedCall/CTC_kerasModel4linerout/expanded_conv_10/squeeze_excite/Mul/mul", "StatefulPartitionedCall/CTC_kerasModel4linerout/expanded_conv_10/project/Conv2D_weights", "StatefulPartitionedCall/CTC_kerasModel4linerout/expanded_conv_10/project/Conv2D_bn_offset"], "device": "/device:CPU:0", "attr": {"padding": {"s": "U0FNRQ=="}, "dilations": {"list": {"i": ["1", "1", "1", "1"]}}, "epsilon": {"f": 0.0}, "explicit_paddings": {"list": {}}, "num_args": {"i": "1"}, "T": {"type": "DT_FLOAT"}, "use_cudnn_on_gpu": {"b": true}, "fused_ops": {"list": {"s": ["Qmlhc0FkZA=="]}}, "strides": {"list": {"i": ["1", "1", "1", "1"]}}, "data_format": {"s": "TkhXQw=="}}}, {"name": "StatefulPartitionedCall/CTC_kerasModel4linerout/expanded_conv_10/Add/add", "op": "AddV2", "input": ["StatefulPartitionedCall/CTC_kerasModel4linerout/expanded_conv_9/Add/add", "StatefulPartitionedCall/CTC_kerasModel4linerout/expanded_conv_10/project/BatchNorm/FusedBatchNormV3"], "attr": {"T": {"type": "DT_FLOAT"}}}, {"name": "StatefulPartitionedCall/CTC_kerasModel4linerout/Conv_1/BatchNorm/FusedBatchNormV3", "op": "_FusedConv2D", "input": ["StatefulPartitionedCall/CTC_kerasModel4linerout/expanded_conv_10/Add/add", "StatefulPartitionedCall/CTC_kerasModel4linerout/Conv_1/Conv2D_weights", "StatefulPartitionedCall/CTC_kerasModel4linerout/Conv_1/Conv2D_bn_offset"], "device": "/device:CPU:0", "attr": {"fused_ops": {"list": {"s": ["Qmlhc0FkZA=="]}}, "num_args": {"i": "1"}, "use_cudnn_on_gpu": {"b": true}, "explicit_paddings": {"list": {}}, "dilations": {"list": {"i": ["1", "1", "1", "1"]}}, "T": {"type": "DT_FLOAT"}, "strides": {"list": {"i": ["1", "1", "1", "1"]}}, "padding": {"s": "U0FNRQ=="}, "epsilon": {"f": 0.0}, "data_format": {"s": "TkhXQw=="}}}, {"name": "StatefulPartitionedCall/CTC_kerasModel4linerout/tf_op_layer_AddV2_26/AddV2_26", "op": "AddV2", "input": ["StatefulPartitionedCall/CTC_kerasModel4linerout/Conv_1/BatchNorm/FusedBatchNormV3", "StatefulPartitionedCall/CTC_kerasModel4linerout/tf_op_layer_AddV2_26/AddV2_26/y"], "attr": {"_cloned": {"b": true}, "T": {"type": "DT_FLOAT"}}}, {"name": "StatefulPartitionedCall/CTC_kerasModel4linerout/re_lu_31/Relu6", "op": "Relu6", "input": ["StatefulPartitionedCall/CTC_kerasModel4linerout/tf_op_layer_AddV2_26/AddV2_26"], "attr": {"T": {"type": "DT_FLOAT"}}}, {"name": "StatefulPartitionedCall/CTC_kerasModel4linerout/tf_op_layer_Mul_26/Mul_26", "op": "Mul", "input": ["StatefulPartitionedCall/CTC_kerasModel4linerout/tf_op_layer_Mul_26/Mul_26/y", "StatefulPartitionedCall/CTC_kerasModel4linerout/re_lu_31/Relu6"], "attr": {"_grappler_ArithmeticOptimizer_MinimizeBroadcasts": {"b": true}, "_cloned": {"b": true}, "T": {"type": "DT_FLOAT"}}}, {"name": "StatefulPartitionedCall/CTC_kerasModel4linerout/multiply_17/mul", "op": "Mul", "input": ["StatefulPartitionedCall/CTC_kerasModel4linerout/tf_op_layer_Mul_26/Mul_26", "StatefulPartitionedCall/CTC_kerasModel4linerout/Conv_1/BatchNorm/FusedBatchNormV3"], "attr": {"T": {"type": "DT_FLOAT"}, "_grappler_ArithmeticOptimizer_MinimizeBroadcasts": {"b": true}}}, {"name": "StatefulPartitionedCall/CTC_kerasModel4linerout/Conv_2/BiasAdd", "op": "_FusedConv2D", "input": ["StatefulPartitionedCall/CTC_kerasModel4linerout/multiply_17/mul", "unknown_205", "unknown_206"], "device": "/device:CPU:0", "attr": {"padding": {"s": "U0FNRQ=="}, "explicit_paddings": {"list": {}}, "strides": {"list": {"i": ["1", "1", "1", "1"]}}, "dilations": {"list": {"i": ["1", "1", "1", "1"]}}, "num_args": {"i": "1"}, "T": {"type": "DT_FLOAT"}, "epsilon": {"f": 0.0}, "use_cudnn_on_gpu": {"b": true}, "data_format": {"s": "TkhXQw=="}, "fused_ops": {"list": {"s": ["Qmlhc0FkZA=="]}}}}, {"name": "StatefulPartitionedCall/CTC_kerasModel4linerout/tf_op_layer_AddV2_27/AddV2_27", "op": "AddV2", "input": ["StatefulPartitionedCall/CTC_kerasModel4linerout/Conv_2/BiasAdd", "StatefulPartitionedCall/CTC_kerasModel4linerout/tf_op_layer_AddV2_27/AddV2_27/y"], "attr": {"T": {"type": "DT_FLOAT"}, "_cloned": {"b": true}}}, {"name": "StatefulPartitionedCall/CTC_kerasModel4linerout/re_lu_32/Relu6", "op": "Relu6", "input": ["StatefulPartitionedCall/CTC_kerasModel4linerout/tf_op_layer_AddV2_27/AddV2_27"], "attr": {"T": {"type": "DT_FLOAT"}}}, {"name": "StatefulPartitionedCall/CTC_kerasModel4linerout/tf_op_layer_Mul_27/Mul_27", "op": "Mul", "input": ["StatefulPartitionedCall/CTC_kerasModel4linerout/tf_op_layer_Mul_27/Mul_27/y", "StatefulPartitionedCall/CTC_kerasModel4linerout/re_lu_32/Relu6"], "attr": {"_grappler_ArithmeticOptimizer_MinimizeBroadcasts": {"b": true}, "T": {"type": "DT_FLOAT"}, "_cloned": {"b": true}}}, {"name": "StatefulPartitionedCall/CTC_kerasModel4linerout/multiply_18/mul", "op": "Mul", "input": ["StatefulPartitionedCall/CTC_kerasModel4linerout/tf_op_layer_Mul_27/Mul_27", "StatefulPartitionedCall/CTC_kerasModel4linerout/Conv_2/BiasAdd"], "attr": {"T": {"type": "DT_FLOAT"}, "_grappler_ArithmeticOptimizer_MinimizeBroadcasts": {"b": true}}}, {"name": "StatefulPartitionedCall/CTC_kerasModel4linerout/avg_pool/AvgPool", "op": "AvgPool", "input": ["StatefulPartitionedCall/CTC_kerasModel4linerout/multiply_18/mul"], "attr": {"padding": {"s": "VkFMSUQ="}, "strides": {"list": {"i": ["1", "1", "8", "1"]}}, "data_format": {"s": "TkhXQw=="}, "ksize": {"list": {"i": ["1", "1", "8", "1"]}}, "T": {"type": "DT_FLOAT"}}}, {"name": "StatefulPartitionedCall/CTC_kerasModel4linerout/reshape_10/Shape", "op": "Shape", "input": ["StatefulPartitionedCall/CTC_kerasModel4linerout/avg_pool/AvgPool"], "attr": {"T": {"type": "DT_FLOAT"}, "out_type": {"type": "DT_INT32"}}}, {"name": "StatefulPartitionedCall/CTC_kerasModel4linerout/reshape_10/strided_slice", "op": "StridedSlice", "input": ["StatefulPartitionedCall/CTC_kerasModel4linerout/reshape_10/Shape", "StatefulPartitionedCall/CTC_kerasModel4linerout/reshape_10/strided_slice/stack", "StatefulPartitionedCall/CTC_kerasModel4linerout/reshape_10/strided_slice/stack_1", "StatefulPartitionedCall/CTC_kerasModel4linerout/reshape_10/strided_slice/stack_2"], "attr": {"ellipsis_mask": {"i": "0"}, "T": {"type": "DT_INT32"}, "Index": {"type": "DT_INT32"}, "end_mask": {"i": "0"}, "shrink_axis_mask": {"i": "1"}, "begin_mask": {"i": "0"}, "new_axis_mask": {"i": "0"}}}, {"name": "StatefulPartitionedCall/CTC_kerasModel4linerout/reshape_10/Reshape/shape", "op": "Pack", "input": ["StatefulPartitionedCall/CTC_kerasModel4linerout/reshape_10/strided_slice", "StatefulPartitionedCall/CTC_kerasModel4linerout/reshape_10/Reshape/shape/1", "StatefulPartitionedCall/CTC_kerasModel4linerout/reshape_10/Reshape/shape/2"], "attr": {"T": {"type": "DT_INT32"}, "N": {"i": "3"}, "axis": {"i": "0"}}}, {"name": "StatefulPartitionedCall/CTC_kerasModel4linerout/reshape_10/Reshape", "op": "Reshape", "input": ["StatefulPartitionedCall/CTC_kerasModel4linerout/avg_pool/AvgPool", "StatefulPartitionedCall/CTC_kerasModel4linerout/reshape_10/Reshape/shape"], "attr": {"T": {"type": "DT_FLOAT"}, "Tshape": {"type": "DT_INT32"}}}, {"name": "StatefulPartitionedCall/CTC_kerasModel4linerout/liner_out/Tensordot/Shape", "op": "Shape", "input": ["StatefulPartitionedCall/CTC_kerasModel4linerout/reshape_10/Reshape"], "attr": {"T": {"type": "DT_FLOAT"}, "out_type": {"type": "DT_INT32"}}}, {"name": "StatefulPartitionedCall/CTC_kerasModel4linerout/liner_out/Tensordot/GatherV2_1", "op": "GatherV2", "input": ["StatefulPartitionedCall/CTC_kerasModel4linerout/liner_out/Tensordot/Shape", "StatefulPartitionedCall/CTC_kerasModel4linerout/liner_out/Tensordot/axes", "StatefulPartitionedCall/CTC_kerasModel4linerout/liner_out/Tensordot/GatherV2_1/axis"], "attr": {"Tparams": {"type": "DT_INT32"}, "Tindices": {"type": "DT_INT32"}, "Taxis": {"type": "DT_INT32"}, "batch_dims": {"i": "0"}}}, {"name": "StatefulPartitionedCall/CTC_kerasModel4linerout/liner_out/Tensordot/GatherV2", "op": "GatherV2", "input": ["StatefulPartitionedCall/CTC_kerasModel4linerout/liner_out/Tensordot/Shape", "StatefulPartitionedCall/CTC_kerasModel4linerout/liner_out/Tensordot/free", "StatefulPartitionedCall/CTC_kerasModel4linerout/liner_out/Tensordot/GatherV2/axis"], "attr": {"Tindices": {"type": "DT_INT32"}, "batch_dims": {"i": "0"}, "Taxis": {"type": "DT_INT32"}, "Tparams": {"type": "DT_INT32"}}}, {"name": "StatefulPartitionedCall/CTC_kerasModel4linerout/liner_out/Tensordot/Prod_1", "op": "Prod", "input": ["StatefulPartitionedCall/CTC_kerasModel4linerout/liner_out/Tensordot/GatherV2_1", "StatefulPartitionedCall/CTC_kerasModel4linerout/liner_out/Tensordot/Const_1"], "attr": {"keep_dims": {"b": false}, "T": {"type": "DT_INT32"}, "Tidx": {"type": "DT_INT32"}}}, {"name": "StatefulPartitionedCall/CTC_kerasModel4linerout/liner_out/Tensordot/concat_1", "op": "ConcatV2", "input": ["StatefulPartitionedCall/CTC_kerasModel4linerout/liner_out/Tensordot/GatherV2", "StatefulPartitionedCall/CTC_kerasModel4linerout/liner_out/Tensordot/Const_2", "StatefulPartitionedCall/CTC_kerasModel4linerout/liner_out/Tensordot/concat_1/axis"], "attr": {"N": {"i": "2"}, "Tidx": {"type": "DT_INT32"}, "T": {"type": "DT_INT32"}}}, {"name": "StatefulPartitionedCall/CTC_kerasModel4linerout/liner_out/Tensordot/Prod", "op": "Prod", "input": ["StatefulPartitionedCall/CTC_kerasModel4linerout/liner_out/Tensordot/GatherV2", "StatefulPartitionedCall/CTC_kerasModel4linerout/liner_out/Tensordot/Const"], "attr": {"Tidx": {"type": "DT_INT32"}, "T": {"type": "DT_INT32"}, "keep_dims": {"b": false}}}, {"name": "StatefulPartitionedCall/CTC_kerasModel4linerout/liner_out/Tensordot/stack", "op": "Pack", "input": ["StatefulPartitionedCall/CTC_kerasModel4linerout/liner_out/Tensordot/Prod", "StatefulPartitionedCall/CTC_kerasModel4linerout/liner_out/Tensordot/Prod_1"], "attr": {"N": {"i": "2"}, "T": {"type": "DT_INT32"}, "axis": {"i": "0"}}}, {"name": "StatefulPartitionedCall/CTC_kerasModel4linerout/liner_out/Tensordot/Reshape", "op": "Reshape", "input": ["StatefulPartitionedCall/CTC_kerasModel4linerout/avg_pool/AvgPool", "StatefulPartitionedCall/CTC_kerasModel4linerout/liner_out/Tensordot/stack"], "attr": {"Tshape": {"type": "DT_INT32"}, "T": {"type": "DT_FLOAT"}}}, {"name": "StatefulPartitionedCall/CTC_kerasModel4linerout/liner_out/Tensordot/MatMul", "op": "MatMul", "input": ["StatefulPartitionedCall/CTC_kerasModel4linerout/liner_out/Tensordot/Reshape", "unknown_207"], "device": "/device:CPU:0", "attr": {"transpose_b": {"b": false}, "T": {"type": "DT_FLOAT"}, "transpose_a": {"b": false}}}, {"name": "StatefulPartitionedCall/CTC_kerasModel4linerout/liner_out/Tensordot", "op": "Reshape", "input": ["StatefulPartitionedCall/CTC_kerasModel4linerout/liner_out/Tensordot/MatMul", "StatefulPartitionedCall/CTC_kerasModel4linerout/liner_out/Tensordot/concat_1"], "attr": {"T": {"type": "DT_FLOAT"}, "Tshape": {"type": "DT_INT32"}}}, {"name": "StatefulPartitionedCall/CTC_kerasModel4linerout/liner_out/BiasAdd", "op": "BiasAdd", "input": ["StatefulPartitionedCall/CTC_kerasModel4linerout/liner_out/Tensordot", "unknown_208"], "attr": {"T": {"type": "DT_FLOAT"}, "data_format": {"s": "TkhXQw=="}}}, {"name": "Identity", "op": "Identity", "input": ["StatefulPartitionedCall/CTC_kerasModel4linerout/liner_out/BiasAdd"], "attr": {"T": {"type": "DT_FLOAT"}}}], "library": {}, "versions": {"producer": 440}}, "weightsManifest": [{"paths": ["group1-shard1of4.bin", "group1-shard2of4.bin", "group1-shard3of4.bin", "group1-shard4of4.bin"], "weights": [{"name": "StatefulPartitionedCall/CTC_kerasModel4linerout/liner_out/Tensordot/Const", "shape": [1], "dtype": "int32"}, {"name": "StatefulPartitionedCall/CTC_kerasModel4linerout/liner_out/Tensordot/axes", "shape": [1], "dtype": "int32"}, {"name": "StatefulPartitionedCall/CTC_kerasModel4linerout/liner_out/Tensordot/GatherV2_1/axis", "shape": [], "dtype": "int32"}, {"name": "StatefulPartitionedCall/CTC_kerasModel4linerout/liner_out/Tensordot/Const_1", "shape": [1], "dtype": "int32"}, {"name": "unknown_207", "shape": [1024, 2036], "dtype": "float32"}, {"name": "StatefulPartitionedCall/CTC_kerasModel4linerout/tf_op_layer_Mul_27/Mul_27/y", "shape": [], "dtype": "float32"}, {"name": "StatefulPartitionedCall/CTC_kerasModel4linerout/tf_op_layer_AddV2_27/AddV2_27/y", "shape": [], "dtype": "float32"}, {"name": "StatefulPartitionedCall/CTC_kerasModel4linerout/tf_op_layer_Mul_26/Mul_26/y", "shape": [], "dtype": "float32"}, {"name": "StatefulPartitionedCall/CTC_kerasModel4linerout/tf_op_layer_AddV2_26/AddV2_26/y", "shape": [], "dtype": "float32"}, {"name": "StatefulPartitionedCall/CTC_kerasModel4linerout/tf_op_layer_Mul_25/Mul_25/y", "shape": [], "dtype": "float32"}, {"name": "StatefulPartitionedCall/CTC_kerasModel4linerout/expanded_conv_10/squeeze_excite/AvgPool/Mean/reduction_indices", "shape": [2], "dtype": "int32"}, {"name": "StatefulPartitionedCall/CTC_kerasModel4linerout/reshape_9/strided_slice/stack", "shape": [1], "dtype": "int32"}, {"name": "StatefulPartitionedCall/CTC_kerasModel4linerout/reshape_9/strided_slice/stack_1", "shape": [1], "dtype": "int32"}, {"name": "StatefulPartitionedCall/CTC_kerasModel4linerout/reshape_9/strided_slice/stack_2", "shape": [1], "dtype": "int32"}, {"name": "StatefulPartitionedCall/CTC_kerasModel4linerout/reshape_9/Reshape/shape/1", "shape": [], "dtype": "int32"}, {"name": "StatefulPartitionedCall/CTC_kerasModel4linerout/reshape_9/Reshape/shape/2", "shape": [], "dtype": "int32"}, {"name": "StatefulPartitionedCall/CTC_kerasModel4linerout/reshape_9/Reshape/shape/3", "shape": [], "dtype": "int32"}, {"name": "unknown_191", "shape": [1, 1, 576, 144], "dtype": "float32"}, {"name": "unknown_192", "shape": [144], "dtype": "float32"}, {"name": "unknown_193", "shape": [1, 1, 144, 576], "dtype": "float32"}, {"name": "unknown_194", "shape": [576], "dtype": "float32"}, {"name": "StatefulPartitionedCall/CTC_kerasModel4linerout/tf_op_layer_AddV2_25/AddV2_25/y", "shape": [], "dtype": "float32"}, {"name": "StatefulPartitionedCall/CTC_kerasModel4linerout/tf_op_layer_Mul_24/Mul_24/y", "shape": [], "dtype": "float32"}, {"name": "StatefulPartitionedCall/CTC_kerasModel4linerout/tf_op_layer_AddV2_24/AddV2_24/y", "shape": [], "dtype": "float32"}, {"name": "StatefulPartitionedCall/CTC_kerasModel4linerout/tf_op_layer_Mul_23/Mul_23/y", "shape": [], "dtype": "float32"}, {"name": "StatefulPartitionedCall/CTC_kerasModel4linerout/tf_op_layer_AddV2_23/AddV2_23/y", "shape": [], "dtype": "float32"}, {"name": "StatefulPartitionedCall/CTC_kerasModel4linerout/tf_op_layer_Mul_22/Mul_22/y", "shape": [], "dtype": "float32"}, {"name": "StatefulPartitionedCall/CTC_kerasModel4linerout/expanded_conv_9/squeeze_excite/AvgPool/Mean/reduction_indices", "shape": [2], "dtype": "int32"}, {"name": "StatefulPartitionedCall/CTC_kerasModel4linerout/reshape_8/strided_slice/stack", "shape": [1], "dtype": "int32"}, {"name": "StatefulPartitionedCall/CTC_kerasModel4linerout/reshape_8/strided_slice/stack_1", "shape": [1], "dtype": "int32"}, {"name": "StatefulPartitionedCall/CTC_kerasModel4linerout/reshape_8/strided_slice/stack_2", "shape": [1], "dtype": "int32"}, {"name": "StatefulPartitionedCall/CTC_kerasModel4linerout/reshape_8/Reshape/shape/1", "shape": [], "dtype": "int32"}, {"name": "StatefulPartitionedCall/CTC_kerasModel4linerout/reshape_8/Reshape/shape/2", "shape": [], "dtype": "int32"}, {"name": "StatefulPartitionedCall/CTC_kerasModel4linerout/reshape_8/Reshape/shape/3", "shape": [], "dtype": "int32"}, {"name": "unknown_172", "shape": [1, 1, 576, 144], "dtype": "float32"}, {"name": "unknown_173", "shape": [144], "dtype": "float32"}, {"name": "unknown_174", "shape": [1, 1, 144, 576], "dtype": "float32"}, {"name": "unknown_175", "shape": [576], "dtype": "float32"}, {"name": "StatefulPartitionedCall/CTC_kerasModel4linerout/tf_op_layer_AddV2_22/AddV2_22/y", "shape": [], "dtype": "float32"}, {"name": "StatefulPartitionedCall/CTC_kerasModel4linerout/tf_op_layer_Mul_21/Mul_21/y", "shape": [], "dtype": "float32"}, {"name": "StatefulPartitionedCall/CTC_kerasModel4linerout/tf_op_layer_AddV2_21/AddV2_21/y", "shape": [], "dtype": "float32"}, {"name": "StatefulPartitionedCall/CTC_kerasModel4linerout/tf_op_layer_Mul_20/Mul_20/y", "shape": [], "dtype": "float32"}, {"name": "StatefulPartitionedCall/CTC_kerasModel4linerout/tf_op_layer_AddV2_20/AddV2_20/y", "shape": [], "dtype": "float32"}, {"name": "StatefulPartitionedCall/CTC_kerasModel4linerout/tf_op_layer_Mul_19/Mul_19/y", "shape": [], "dtype": "float32"}, {"name": "StatefulPartitionedCall/CTC_kerasModel4linerout/expanded_conv_8/squeeze_excite/AvgPool/Mean/reduction_indices", "shape": [2], "dtype": "int32"}, {"name": "StatefulPartitionedCall/CTC_kerasModel4linerout/reshape_7/strided_slice/stack", "shape": [1], "dtype": "int32"}, {"name": "StatefulPartitionedCall/CTC_kerasModel4linerout/reshape_7/strided_slice/stack_1", "shape": [1], "dtype": "int32"}, {"name": "StatefulPartitionedCall/CTC_kerasModel4linerout/reshape_7/strided_slice/stack_2", "shape": [1], "dtype": "int32"}, {"name": "StatefulPartitionedCall/CTC_kerasModel4linerout/reshape_7/Reshape/shape/1", "shape": [], "dtype": "int32"}, {"name": "StatefulPartitionedCall/CTC_kerasModel4linerout/reshape_7/Reshape/shape/2", "shape": [], "dtype": "int32"}, {"name": "StatefulPartitionedCall/CTC_kerasModel4linerout/reshape_7/Reshape/shape/3", "shape": [], "dtype": "int32"}, {"name": "unknown_153", "shape": [1, 1, 288, 72], "dtype": "float32"}, {"name": "unknown_154", "shape": [72], "dtype": "float32"}, {"name": "unknown_155", "shape": [1, 1, 72, 288], "dtype": "float32"}, {"name": "unknown_156", "shape": [288], "dtype": "float32"}, {"name": "StatefulPartitionedCall/CTC_kerasModel4linerout/tf_op_layer_AddV2_19/AddV2_19/y", "shape": [], "dtype": "float32"}, {"name": "StatefulPartitionedCall/CTC_kerasModel4linerout/tf_op_layer_Mul_18/Mul_18/y", "shape": [], "dtype": "float32"}, {"name": "StatefulPartitionedCall/CTC_kerasModel4linerout/tf_op_layer_AddV2_18/AddV2_18/y", "shape": [], "dtype": "float32"}, {"name": "StatefulPartitionedCall/CTC_kerasModel4linerout/tf_op_layer_Mul_17/Mul_17/y", "shape": [], "dtype": "float32"}, {"name": "StatefulPartitionedCall/CTC_kerasModel4linerout/tf_op_layer_AddV2_17/AddV2_17/y", "shape": [], "dtype": "float32"}, {"name": "StatefulPartitionedCall/CTC_kerasModel4linerout/tf_op_layer_Mul_16/Mul_16/y", "shape": [], "dtype": "float32"}, {"name": "StatefulPartitionedCall/CTC_kerasModel4linerout/expanded_conv_7/squeeze_excite/AvgPool/Mean/reduction_indices", "shape": [2], "dtype": "int32"}, {"name": "StatefulPartitionedCall/CTC_kerasModel4linerout/reshape_6/strided_slice/stack", "shape": [1], "dtype": "int32"}, {"name": "StatefulPartitionedCall/CTC_kerasModel4linerout/reshape_6/strided_slice/stack_1", "shape": [1], "dtype": "int32"}, {"name": "StatefulPartitionedCall/CTC_kerasModel4linerout/reshape_6/strided_slice/stack_2", "shape": [1], "dtype": "int32"}, {"name": "StatefulPartitionedCall/CTC_kerasModel4linerout/reshape_6/Reshape/shape/1", "shape": [], "dtype": "int32"}, {"name": "StatefulPartitionedCall/CTC_kerasModel4linerout/reshape_6/Reshape/shape/2", "shape": [], "dtype": "int32"}, {"name": "StatefulPartitionedCall/CTC_kerasModel4linerout/reshape_6/Reshape/shape/3", "shape": [], "dtype": "int32"}, {"name": "unknown_134", "shape": [1, 1, 144, 40], "dtype": "float32"}, {"name": "unknown_135", "shape": [40], "dtype": "float32"}, {"name": "unknown_136", "shape": [1, 1, 40, 144], "dtype": "float32"}, {"name": "unknown_137", "shape": [144], "dtype": "float32"}, {"name": "StatefulPartitionedCall/CTC_kerasModel4linerout/tf_op_layer_AddV2_16/AddV2_16/y", "shape": [], "dtype": "float32"}, {"name": "StatefulPartitionedCall/CTC_kerasModel4linerout/tf_op_layer_Mul_15/Mul_15/y", "shape": [], "dtype": "float32"}, {"name": "StatefulPartitionedCall/CTC_kerasModel4linerout/tf_op_layer_AddV2_15/AddV2_15/y", "shape": [], "dtype": "float32"}, {"name": "StatefulPartitionedCall/CTC_kerasModel4linerout/tf_op_layer_Mul_14/Mul_14/y", "shape": [], "dtype": "float32"}, {"name": "StatefulPartitionedCall/CTC_kerasModel4linerout/tf_op_layer_AddV2_14/AddV2_14/y", "shape": [], "dtype": "float32"}, {"name": "StatefulPartitionedCall/CTC_kerasModel4linerout/tf_op_layer_Mul_13/Mul_13/y", "shape": [], "dtype": "float32"}, {"name": "StatefulPartitionedCall/CTC_kerasModel4linerout/expanded_conv_6/squeeze_excite/AvgPool/Mean/reduction_indices", "shape": [2], "dtype": "int32"}, {"name": "StatefulPartitionedCall/CTC_kerasModel4linerout/reshape_5/strided_slice/stack", "shape": [1], "dtype": "int32"}, {"name": "StatefulPartitionedCall/CTC_kerasModel4linerout/reshape_5/strided_slice/stack_1", "shape": [1], "dtype": "int32"}, {"name": "StatefulPartitionedCall/CTC_kerasModel4linerout/reshape_5/strided_slice/stack_2", "shape": [1], "dtype": "int32"}, {"name": "StatefulPartitionedCall/CTC_kerasModel4linerout/reshape_5/Reshape/shape/1", "shape": [], "dtype": "int32"}, {"name": "StatefulPartitionedCall/CTC_kerasModel4linerout/reshape_5/Reshape/shape/2", "shape": [], "dtype": "int32"}, {"name": "StatefulPartitionedCall/CTC_kerasModel4linerout/reshape_5/Reshape/shape/3", "shape": [], "dtype": "int32"}, {"name": "unknown_115", "shape": [1, 1, 120, 32], "dtype": "float32"}, {"name": "unknown_116", "shape": [32], "dtype": "float32"}, {"name": "unknown_117", "shape": [1, 1, 32, 120], "dtype": "float32"}, {"name": "unknown_118", "shape": [120], "dtype": "float32"}, {"name": "StatefulPartitionedCall/CTC_kerasModel4linerout/tf_op_layer_AddV2_13/AddV2_13/y", "shape": [], "dtype": "float32"}, {"name": "StatefulPartitionedCall/CTC_kerasModel4linerout/tf_op_layer_Mul_12/Mul_12/y", "shape": [], "dtype": "float32"}, {"name": "StatefulPartitionedCall/CTC_kerasModel4linerout/tf_op_layer_AddV2_12/AddV2_12/y", "shape": [], "dtype": "float32"}, {"name": "StatefulPartitionedCall/CTC_kerasModel4linerout/tf_op_layer_Mul_11/Mul_11/y", "shape": [], "dtype": "float32"}, {"name": "StatefulPartitionedCall/CTC_kerasModel4linerout/tf_op_layer_AddV2_11/AddV2_11/y", "shape": [], "dtype": "float32"}, {"name": "StatefulPartitionedCall/CTC_kerasModel4linerout/tf_op_layer_Mul_10/Mul_10/y", "shape": [], "dtype": "float32"}, {"name": "StatefulPartitionedCall/CTC_kerasModel4linerout/expanded_conv_5/squeeze_excite/AvgPool/Mean/reduction_indices", "shape": [2], "dtype": "int32"}, {"name": "StatefulPartitionedCall/CTC_kerasModel4linerout/reshape_4/strided_slice/stack", "shape": [1], "dtype": "int32"}, {"name": "StatefulPartitionedCall/CTC_kerasModel4linerout/reshape_4/strided_slice/stack_1", "shape": [1], "dtype": "int32"}, {"name": "StatefulPartitionedCall/CTC_kerasModel4linerout/reshape_4/strided_slice/stack_2", "shape": [1], "dtype": "int32"}, {"name": "StatefulPartitionedCall/CTC_kerasModel4linerout/reshape_4/Reshape/shape/1", "shape": [], "dtype": "int32"}, {"name": "StatefulPartitionedCall/CTC_kerasModel4linerout/reshape_4/Reshape/shape/2", "shape": [], "dtype": "int32"}, {"name": "StatefulPartitionedCall/CTC_kerasModel4linerout/reshape_4/Reshape/shape/3", "shape": [], "dtype": "int32"}, {"name": "unknown_96", "shape": [1, 1, 240, 64], "dtype": "float32"}, {"name": "unknown_97", "shape": [64], "dtype": "float32"}, {"name": "unknown_98", "shape": [1, 1, 64, 240], "dtype": "float32"}, {"name": "unknown_99", "shape": [240], "dtype": "float32"}, {"name": "StatefulPartitionedCall/CTC_kerasModel4linerout/tf_op_layer_AddV2_10/AddV2_10/y", "shape": [], "dtype": "float32"}, {"name": "StatefulPartitionedCall/CTC_kerasModel4linerout/tf_op_layer_Mul_9/Mul_9/y", "shape": [], "dtype": "float32"}, {"name": "StatefulPartitionedCall/CTC_kerasModel4linerout/tf_op_layer_AddV2_9/AddV2_9/y", "shape": [], "dtype": "float32"}, {"name": "StatefulPartitionedCall/CTC_kerasModel4linerout/tf_op_layer_Mul_8/Mul_8/y", "shape": [], "dtype": "float32"}, {"name": "StatefulPartitionedCall/CTC_kerasModel4linerout/tf_op_layer_AddV2_8/AddV2_8/y", "shape": [], "dtype": "float32"}, {"name": "StatefulPartitionedCall/CTC_kerasModel4linerout/tf_op_layer_Mul_7/Mul_7/y", "shape": [], "dtype": "float32"}, {"name": "StatefulPartitionedCall/CTC_kerasModel4linerout/expanded_conv_4/squeeze_excite/AvgPool/Mean/reduction_indices", "shape": [2], "dtype": "int32"}, {"name": "StatefulPartitionedCall/CTC_kerasModel4linerout/reshape_3/strided_slice/stack", "shape": [1], "dtype": "int32"}, {"name": "StatefulPartitionedCall/CTC_kerasModel4linerout/reshape_3/strided_slice/stack_1", "shape": [1], "dtype": "int32"}, {"name": "StatefulPartitionedCall/CTC_kerasModel4linerout/reshape_3/strided_slice/stack_2", "shape": [1], "dtype": "int32"}, {"name": "StatefulPartitionedCall/CTC_kerasModel4linerout/reshape_3/Reshape/shape/1", "shape": [], "dtype": "int32"}, {"name": "StatefulPartitionedCall/CTC_kerasModel4linerout/reshape_3/Reshape/shape/2", "shape": [], "dtype": "int32"}, {"name": "StatefulPartitionedCall/CTC_kerasModel4linerout/reshape_3/Reshape/shape/3", "shape": [], "dtype": "int32"}, {"name": "unknown_77", "shape": [1, 1, 240, 64], "dtype": "float32"}, {"name": "unknown_78", "shape": [64], "dtype": "float32"}, {"name": "unknown_79", "shape": [1, 1, 64, 240], "dtype": "float32"}, {"name": "unknown_80", "shape": [240], "dtype": "float32"}, {"name": "StatefulPartitionedCall/CTC_kerasModel4linerout/tf_op_layer_AddV2_7/AddV2_7/y", "shape": [], "dtype": "float32"}, {"name": "StatefulPartitionedCall/CTC_kerasModel4linerout/tf_op_layer_Mul_6/Mul_6/y", "shape": [], "dtype": "float32"}, {"name": "StatefulPartitionedCall/CTC_kerasModel4linerout/tf_op_layer_AddV2_6/AddV2_6/y", "shape": [], "dtype": "float32"}, {"name": "StatefulPartitionedCall/CTC_kerasModel4linerout/tf_op_layer_Mul_5/Mul_5/y", "shape": [], "dtype": "float32"}, {"name": "StatefulPartitionedCall/CTC_kerasModel4linerout/tf_op_layer_AddV2_5/AddV2_5/y", "shape": [], "dtype": "float32"}, {"name": "StatefulPartitionedCall/CTC_kerasModel4linerout/tf_op_layer_Mul_4/Mul_4/y", "shape": [], "dtype": "float32"}, {"name": "StatefulPartitionedCall/CTC_kerasModel4linerout/expanded_conv_3/squeeze_excite/AvgPool/Mean/reduction_indices", "shape": [2], "dtype": "int32"}, {"name": "StatefulPartitionedCall/CTC_kerasModel4linerout/reshape_2/strided_slice/stack", "shape": [1], "dtype": "int32"}, {"name": "StatefulPartitionedCall/CTC_kerasModel4linerout/reshape_2/strided_slice/stack_1", "shape": [1], "dtype": "int32"}, {"name": "StatefulPartitionedCall/CTC_kerasModel4linerout/reshape_2/strided_slice/stack_2", "shape": [1], "dtype": "int32"}, {"name": "StatefulPartitionedCall/CTC_kerasModel4linerout/reshape_2/Reshape/shape/1", "shape": [], "dtype": "int32"}, {"name": "StatefulPartitionedCall/CTC_kerasModel4linerout/reshape_2/Reshape/shape/2", "shape": [], "dtype": "int32"}, {"name": "StatefulPartitionedCall/CTC_kerasModel4linerout/reshape_2/Reshape/shape/3", "shape": [], "dtype": "int32"}, {"name": "unknown_58", "shape": [1, 1, 96, 24], "dtype": "float32"}, {"name": "unknown_59", "shape": [24], "dtype": "float32"}, {"name": "unknown_60", "shape": [1, 1, 24, 96], "dtype": "float32"}, {"name": "unknown_61", "shape": [96], "dtype": "float32"}, {"name": "StatefulPartitionedCall/CTC_kerasModel4linerout/tf_op_layer_AddV2_4/AddV2_4/y", "shape": [], "dtype": "float32"}, {"name": "StatefulPartitionedCall/CTC_kerasModel4linerout/tf_op_layer_Mul_3/Mul_3/y", "shape": [], "dtype": "float32"}, {"name": "StatefulPartitionedCall/CTC_kerasModel4linerout/tf_op_layer_AddV2_3/AddV2_3/y", "shape": [], "dtype": "float32"}, {"name": "StatefulPartitionedCall/CTC_kerasModel4linerout/tf_op_layer_Mul_2/Mul_2/y", "shape": [], "dtype": "float32"}, {"name": "StatefulPartitionedCall/CTC_kerasModel4linerout/tf_op_layer_AddV2_2/AddV2_2/y", "shape": [], "dtype": "float32"}, {"name": "StatefulPartitionedCall/CTC_kerasModel4linerout/tf_op_layer_Mul_1/Mul_1/y", "shape": [], "dtype": "float32"}, {"name": "StatefulPartitionedCall/CTC_kerasModel4linerout/expanded_conv/squeeze_excite/AvgPool/Mean/reduction_indices", "shape": [2], "dtype": "int32"}, {"name": "StatefulPartitionedCall/CTC_kerasModel4linerout/reshape_1/strided_slice/stack", "shape": [1], "dtype": "int32"}, {"name": "StatefulPartitionedCall/CTC_kerasModel4linerout/reshape_1/strided_slice/stack_1", "shape": [1], "dtype": "int32"}, {"name": "StatefulPartitionedCall/CTC_kerasModel4linerout/reshape_1/strided_slice/stack_2", "shape": [1], "dtype": "int32"}, {"name": "StatefulPartitionedCall/CTC_kerasModel4linerout/reshape_1/Reshape/shape/1", "shape": [], "dtype": "int32"}, {"name": "StatefulPartitionedCall/CTC_kerasModel4linerout/reshape_1/Reshape/shape/2", "shape": [], "dtype": "int32"}, {"name": "StatefulPartitionedCall/CTC_kerasModel4linerout/reshape_1/Reshape/shape/3", "shape": [], "dtype": "int32"}, {"name": "unknown_9", "shape": [1, 1, 16, 8], "dtype": "float32"}, {"name": "unknown_10", "shape": [8], "dtype": "float32"}, {"name": "unknown_11", "shape": [1, 1, 8, 16], "dtype": "float32"}, {"name": "unknown_12", "shape": [16], "dtype": "float32"}, {"name": "StatefulPartitionedCall/CTC_kerasModel4linerout/tf_op_layer_AddV2_1/AddV2_1/y", "shape": [], "dtype": "float32"}, {"name": "StatefulPartitionedCall/CTC_kerasModel4linerout/tf_op_layer_Mul/Mul/y", "shape": [], "dtype": "float32"}, {"name": "StatefulPartitionedCall/CTC_kerasModel4linerout/tf_op_layer_AddV2/AddV2/y", "shape": [], "dtype": "float32"}, {"name": "StatefulPartitionedCall/CTC_kerasModel4linerout/reshape/strided_slice/stack", "shape": [1], "dtype": "int32"}, {"name": "StatefulPartitionedCall/CTC_kerasModel4linerout/reshape/strided_slice/stack_1", "shape": [1], "dtype": "int32"}, {"name": "StatefulPartitionedCall/CTC_kerasModel4linerout/reshape/strided_slice/stack_2", "shape": [1], "dtype": "int32"}, {"name": "StatefulPartitionedCall/CTC_kerasModel4linerout/reshape/Reshape/shape/1", "shape": [], "dtype": "int32"}, {"name": "StatefulPartitionedCall/CTC_kerasModel4linerout/reshape/Reshape/shape/2", "shape": [], "dtype": "int32"}, {"name": "StatefulPartitionedCall/CTC_kerasModel4linerout/reshape/Reshape/shape/3", "shape": [], "dtype": "int32"}, {"name": "StatefulPartitionedCall/CTC_kerasModel4linerout/expanded_conv/depthwise/pad/Pad/paddings", "shape": [4, 2], "dtype": "int32"}, {"name": "StatefulPartitionedCall/CTC_kerasModel4linerout/expanded_conv_1/depthwise/pad/Pad/paddings", "shape": [4, 2], "dtype": "int32"}, {"name": "StatefulPartitionedCall/CTC_kerasModel4linerout/expanded_conv_3/depthwise/pad/Pad/paddings", "shape": [4, 2], "dtype": "int32"}, {"name": "StatefulPartitionedCall/CTC_kerasModel4linerout/expanded_conv_8/depthwise/pad/Pad/paddings", "shape": [4, 2], "dtype": "int32"}, {"name": "unknown_205", "shape": [1, 1, 576, 1024], "dtype": "float32"}, {"name": "unknown_206", "shape": [1024], "dtype": "float32"}, {"name": "StatefulPartitionedCall/CTC_kerasModel4linerout/reshape_10/strided_slice/stack", "shape": [1], "dtype": "int32"}, {"name": "StatefulPartitionedCall/CTC_kerasModel4linerout/reshape_10/strided_slice/stack_1", "shape": [1], "dtype": "int32"}, {"name": "StatefulPartitionedCall/CTC_kerasModel4linerout/reshape_10/strided_slice/stack_2", "shape": [1], "dtype": "int32"}, {"name": "StatefulPartitionedCall/CTC_kerasModel4linerout/reshape_10/Reshape/shape/1", "shape": [], "dtype": "int32"}, {"name": "StatefulPartitionedCall/CTC_kerasModel4linerout/reshape_10/Reshape/shape/2", "shape": [], "dtype": "int32"}, {"name": "StatefulPartitionedCall/CTC_kerasModel4linerout/liner_out/Tensordot/free", "shape": [2], "dtype": "int32"}, {"name": "StatefulPartitionedCall/CTC_kerasModel4linerout/liner_out/Tensordot/GatherV2/axis", "shape": [], "dtype": "int32"}, {"name": "StatefulPartitionedCall/CTC_kerasModel4linerout/liner_out/Tensordot/Const_2", "shape": [1], "dtype": "int32"}, {"name": "StatefulPartitionedCall/CTC_kerasModel4linerout/liner_out/Tensordot/concat_1/axis", "shape": [], "dtype": "int32"}, {"name": "unknown_208", "shape": [2036], "dtype": "float32"}, {"name": "StatefulPartitionedCall/CTC_kerasModel4linerout/Conv/Conv2D_weights", "shape": [3, 3, 1, 16], "dtype": "float32"}, {"name": "StatefulPartitionedCall/CTC_kerasModel4linerout/Conv/Conv2D_bn_offset", "shape": [16], "dtype": "float32"}, {"name": "StatefulPartitionedCall/CTC_kerasModel4linerout/expanded_conv/depthwise/depthwise_weights", "shape": [3, 3, 16, 1], "dtype": "float32"}, {"name": "StatefulPartitionedCall/CTC_kerasModel4linerout/expanded_conv/depthwise/depthwise_bn_offset", "shape": [16], "dtype": "float32"}, {"name": "StatefulPartitionedCall/CTC_kerasModel4linerout/expanded_conv/project/Conv2D_weights", "shape": [1, 1, 16, 16], "dtype": "float32"}, {"name": "StatefulPartitionedCall/CTC_kerasModel4linerout/expanded_conv/project/Conv2D_bn_offset", "shape": [16], "dtype": "float32"}, {"name": "StatefulPartitionedCall/CTC_kerasModel4linerout/expanded_conv_1/expand/Conv2D_weights", "shape": [1, 1, 16, 72], "dtype": "float32"}, {"name": "StatefulPartitionedCall/CTC_kerasModel4linerout/expanded_conv_1/expand/Conv2D_bn_offset", "shape": [72], "dtype": "float32"}, {"name": "StatefulPartitionedCall/CTC_kerasModel4linerout/expanded_conv_1/depthwise/depthwise_weights", "shape": [3, 3, 72, 1], "dtype": "float32"}, {"name": "StatefulPartitionedCall/CTC_kerasModel4linerout/expanded_conv_1/depthwise/depthwise_bn_offset", "shape": [72], "dtype": "float32"}, {"name": "StatefulPartitionedCall/CTC_kerasModel4linerout/expanded_conv_1/project/Conv2D_weights", "shape": [1, 1, 72, 24], "dtype": "float32"}, {"name": "StatefulPartitionedCall/CTC_kerasModel4linerout/expanded_conv_1/project/Conv2D_bn_offset", "shape": [24], "dtype": "float32"}, {"name": "StatefulPartitionedCall/CTC_kerasModel4linerout/expanded_conv_2/expand/Conv2D_weights", "shape": [1, 1, 24, 88], "dtype": "float32"}, {"name": "StatefulPartitionedCall/CTC_kerasModel4linerout/expanded_conv_2/expand/Conv2D_bn_offset", "shape": [88], "dtype": "float32"}, {"name": "StatefulPartitionedCall/CTC_kerasModel4linerout/expanded_conv_2/depthwise/depthwise_weights", "shape": [3, 3, 88, 1], "dtype": "float32"}, {"name": "StatefulPartitionedCall/CTC_kerasModel4linerout/expanded_conv_2/depthwise/depthwise_bn_offset", "shape": [88], "dtype": "float32"}, {"name": "StatefulPartitionedCall/CTC_kerasModel4linerout/expanded_conv_2/project/Conv2D_weights", "shape": [1, 1, 88, 24], "dtype": "float32"}, {"name": "StatefulPartitionedCall/CTC_kerasModel4linerout/expanded_conv_2/project/Conv2D_bn_offset", "shape": [24], "dtype": "float32"}, {"name": "StatefulPartitionedCall/CTC_kerasModel4linerout/expanded_conv_3/expand/Conv2D_weights", "shape": [1, 1, 24, 96], "dtype": "float32"}, {"name": "StatefulPartitionedCall/CTC_kerasModel4linerout/expanded_conv_3/expand/Conv2D_bn_offset", "shape": [96], "dtype": "float32"}, {"name": "StatefulPartitionedCall/CTC_kerasModel4linerout/expanded_conv_3/depthwise/depthwise_weights", "shape": [5, 5, 96, 1], "dtype": "float32"}, {"name": "StatefulPartitionedCall/CTC_kerasModel4linerout/expanded_conv_3/depthwise/depthwise_bn_offset", "shape": [96], "dtype": "float32"}, {"name": "StatefulPartitionedCall/CTC_kerasModel4linerout/expanded_conv_3/project/Conv2D_weights", "shape": [1, 1, 96, 40], "dtype": "float32"}, {"name": "StatefulPartitionedCall/CTC_kerasModel4linerout/expanded_conv_3/project/Conv2D_bn_offset", "shape": [40], "dtype": "float32"}, {"name": "StatefulPartitionedCall/CTC_kerasModel4linerout/expanded_conv_4/expand/Conv2D_weights", "shape": [1, 1, 40, 240], "dtype": "float32"}, {"name": "StatefulPartitionedCall/CTC_kerasModel4linerout/expanded_conv_4/expand/Conv2D_bn_offset", "shape": [240], "dtype": "float32"}, {"name": "StatefulPartitionedCall/CTC_kerasModel4linerout/expanded_conv_4/depthwise/depthwise_weights", "shape": [5, 5, 240, 1], "dtype": "float32"}, {"name": "StatefulPartitionedCall/CTC_kerasModel4linerout/expanded_conv_4/depthwise/depthwise_bn_offset", "shape": [240], "dtype": "float32"}, {"name": "StatefulPartitionedCall/CTC_kerasModel4linerout/expanded_conv_10/project/Conv2D_weights", "shape": [1, 1, 576, 96], "dtype": "float32"}, {"name": "StatefulPartitionedCall/CTC_kerasModel4linerout/expanded_conv_10/project/Conv2D_bn_offset", "shape": [96], "dtype": "float32"}, {"name": "StatefulPartitionedCall/CTC_kerasModel4linerout/expanded_conv_4/project/Conv2D_weights", "shape": [1, 1, 240, 40], "dtype": "float32"}, {"name": "StatefulPartitionedCall/CTC_kerasModel4linerout/expanded_conv_4/project/Conv2D_bn_offset", "shape": [40], "dtype": "float32"}, {"name": "StatefulPartitionedCall/CTC_kerasModel4linerout/expanded_conv_5/expand/Conv2D_weights", "shape": [1, 1, 40, 240], "dtype": "float32"}, {"name": "StatefulPartitionedCall/CTC_kerasModel4linerout/expanded_conv_5/expand/Conv2D_bn_offset", "shape": [240], "dtype": "float32"}, {"name": "StatefulPartitionedCall/CTC_kerasModel4linerout/expanded_conv_5/depthwise/depthwise_weights", "shape": [5, 5, 240, 1], "dtype": "float32"}, {"name": "StatefulPartitionedCall/CTC_kerasModel4linerout/expanded_conv_5/depthwise/depthwise_bn_offset", "shape": [240], "dtype": "float32"}, {"name": "StatefulPartitionedCall/CTC_kerasModel4linerout/Conv_1/Conv2D_weights", "shape": [1, 1, 96, 576], "dtype": "float32"}, {"name": "StatefulPartitionedCall/CTC_kerasModel4linerout/Conv_1/Conv2D_bn_offset", "shape": [576], "dtype": "float32"}, {"name": "StatefulPartitionedCall/CTC_kerasModel4linerout/expanded_conv_5/project/Conv2D_weights", "shape": [1, 1, 240, 40], "dtype": "float32"}, {"name": "StatefulPartitionedCall/CTC_kerasModel4linerout/expanded_conv_5/project/Conv2D_bn_offset", "shape": [40], "dtype": "float32"}, {"name": "StatefulPartitionedCall/CTC_kerasModel4linerout/expanded_conv_6/expand/Conv2D_weights", "shape": [1, 1, 40, 120], "dtype": "float32"}, {"name": "StatefulPartitionedCall/CTC_kerasModel4linerout/expanded_conv_6/expand/Conv2D_bn_offset", "shape": [120], "dtype": "float32"}, {"name": "StatefulPartitionedCall/CTC_kerasModel4linerout/expanded_conv_6/depthwise/depthwise_weights", "shape": [5, 5, 120, 1], "dtype": "float32"}, {"name": "StatefulPartitionedCall/CTC_kerasModel4linerout/expanded_conv_6/depthwise/depthwise_bn_offset", "shape": [120], "dtype": "float32"}, {"name": "StatefulPartitionedCall/CTC_kerasModel4linerout/expanded_conv_6/project/Conv2D_weights", "shape": [1, 1, 120, 48], "dtype": "float32"}, {"name": "StatefulPartitionedCall/CTC_kerasModel4linerout/expanded_conv_6/project/Conv2D_bn_offset", "shape": [48], "dtype": "float32"}, {"name": "StatefulPartitionedCall/CTC_kerasModel4linerout/expanded_conv_7/expand/Conv2D_weights", "shape": [1, 1, 48, 144], "dtype": "float32"}, {"name": "StatefulPartitionedCall/CTC_kerasModel4linerout/expanded_conv_7/expand/Conv2D_bn_offset", "shape": [144], "dtype": "float32"}, {"name": "StatefulPartitionedCall/CTC_kerasModel4linerout/expanded_conv_7/depthwise/depthwise_weights", "shape": [5, 5, 144, 1], "dtype": "float32"}, {"name": "StatefulPartitionedCall/CTC_kerasModel4linerout/expanded_conv_7/depthwise/depthwise_bn_offset", "shape": [144], "dtype": "float32"}, {"name": "StatefulPartitionedCall/CTC_kerasModel4linerout/expanded_conv_7/project/Conv2D_weights", "shape": [1, 1, 144, 48], "dtype": "float32"}, {"name": "StatefulPartitionedCall/CTC_kerasModel4linerout/expanded_conv_7/project/Conv2D_bn_offset", "shape": [48], "dtype": "float32"}, {"name": "StatefulPartitionedCall/CTC_kerasModel4linerout/expanded_conv_8/expand/Conv2D_weights", "shape": [1, 1, 48, 288], "dtype": "float32"}, {"name": "StatefulPartitionedCall/CTC_kerasModel4linerout/expanded_conv_8/expand/Conv2D_bn_offset", "shape": [288], "dtype": "float32"}, {"name": "StatefulPartitionedCall/CTC_kerasModel4linerout/expanded_conv_8/depthwise/depthwise_weights", "shape": [5, 5, 288, 1], "dtype": "float32"}, {"name": "StatefulPartitionedCall/CTC_kerasModel4linerout/expanded_conv_8/depthwise/depthwise_bn_offset", "shape": [288], "dtype": "float32"}, {"name": "StatefulPartitionedCall/CTC_kerasModel4linerout/expanded_conv_8/project/Conv2D_weights", "shape": [1, 1, 288, 96], "dtype": "float32"}, {"name": "StatefulPartitionedCall/CTC_kerasModel4linerout/expanded_conv_8/project/Conv2D_bn_offset", "shape": [96], "dtype": "float32"}, {"name": "StatefulPartitionedCall/CTC_kerasModel4linerout/expanded_conv_9/expand/Conv2D_weights", "shape": [1, 1, 96, 576], "dtype": "float32"}, {"name": "StatefulPartitionedCall/CTC_kerasModel4linerout/expanded_conv_9/expand/Conv2D_bn_offset", "shape": [576], "dtype": "float32"}, {"name": "StatefulPartitionedCall/CTC_kerasModel4linerout/expanded_conv_9/depthwise/depthwise_weights", "shape": [5, 5, 576, 1], "dtype": "float32"}, {"name": "StatefulPartitionedCall/CTC_kerasModel4linerout/expanded_conv_9/depthwise/depthwise_bn_offset", "shape": [576], "dtype": "float32"}, {"name": "StatefulPartitionedCall/CTC_kerasModel4linerout/expanded_conv_9/project/Conv2D_weights", "shape": [1, 1, 576, 96], "dtype": "float32"}, {"name": "StatefulPartitionedCall/CTC_kerasModel4linerout/expanded_conv_9/project/Conv2D_bn_offset", "shape": [96], "dtype": "float32"}, {"name": "StatefulPartitionedCall/CTC_kerasModel4linerout/expanded_conv_10/expand/Conv2D_weights", "shape": [1, 1, 96, 576], "dtype": "float32"}, {"name": "StatefulPartitionedCall/CTC_kerasModel4linerout/expanded_conv_10/expand/Conv2D_bn_offset", "shape": [576], "dtype": "float32"}, {"name": "StatefulPartitionedCall/CTC_kerasModel4linerout/expanded_conv_10/depthwise/depthwise_weights", "shape": [5, 5, 576, 1], "dtype": "float32"}, {"name": "StatefulPartitionedCall/CTC_kerasModel4linerout/expanded_conv_10/depthwise/depthwise_bn_offset", "shape": [576], "dtype": "float32"}]}]}